第二次作业/Freeway-runs/DQN.pt (torch, 400672 bytes, 6 tensors)

network.0.weight f4 [256, 128]
0	0xbd8ebbcc	-0.06969413
1	0xbd031d78	-0.032010525
2	0xbcbc72e7	-0.023004008
3	0xbd4d7df8	-0.05016896
4	0x3beb81a3	0.0071870848
5	0x3d6f2f12	0.0583945
6	0x3cf582a0	0.029969513
7	0x3d180797	0.037116613
8	0xbd76a9ae	-0.060220413
9	0x3d9f3afd	0.07774923
10	0xbd03bbb2	-0.032161422
11	0xbcafb676	-0.021449309
12	0xbd2b7d74	-0.04186769
13	0xbd21adb1	-0.039472286
14	0xbd567597	-0.052358236
15	0xbc7e2a98	-0.015513085
16	0xbc921131	-0.017830463
17	0xbd65cd6b	-0.056104105
18	0x3c116362	0.008873792
19	0xbbf44ba2	-0.007455305
20	0xbd5a2db1	-0.05326623
21	0x3d78ebfe	0.060771935
22	0x3db01ae5	0.0859888
23	0x3bb27417	0.005445968
24	0xbe1ef83b	-0.1552438
25	0x3d263217	0.040575113
26	0x3acb9383	0.0015531633
27	0xbca834f4	-0.020533063
28	0x3d4f2920	0.05057633
29	0x3c96bed0	0.018401533
30	0x3de0a75d	0.10969422
31	0x3d2ad095	0.041702826
32	0xbe5e4c9a	-0.21708909
33	0xbe1525e4	-0.14565235
34	0x3d7c9165	0.061662097
35	0x3da98335	0.08276979
36	0xbd54adf7	-0.05192372
37	0xbf5d0623	-0.8633749
38	0xbd6bdfc2	-0.05758644
39	0xbdb06e92	-0.086148396
40	0x3d8d38e8	0.0689562
41	0xbce270d6	-0.027641695
42	0xbc5b5adf	-0.013388365
43	0x3c025e24	0.007957015
44	0xbb4d8c34	-0.0031364085
45	0xba9536bf	-0.0011384113
46	0xbb17650f	-0.0023101007
47	0x3b47f637	0.0030511746
48	0xbd5f4b8c	-0.054515406
49	0xbb6301ff	-0.003463864
50	0x3b35eddf	0.002776019
51	0xbc0cb0f3	-0.00858711
52	0x3c1a9052	0.009433823
53	0x3c4ea1bc	0.012611803
54	0x3d0f8641	0.035040144
55	0xbce1e14d	-0.027573252
56	0x3c3b44f6	0.011430016
57	0xbcbc9af9	-0.023023115
58	0xbd4d9240	-0.050188303
59	0x3d3afa4c	0.045648858
60	0xbca01c4d	-0.019544745
61	0x3d14b0f2	0.03630156
62	0xbcc89785	-0.024486313
63	0x3cb1ff2f	0.021728126
64	0x3c3ca4f4	0.011513937
65	0xbdb4fb0b	-0.08836945
66	0x3cc008eb	0.023441752
67	0x3d57e348	0.052706987
68	0xbd2791dc	-0.040910587
69	0xbcbbc2f1	-0.022920104
70	0x3d5e76e0	0.054312587
71	0x3d07b9ca	0.033136167
72	0x3c81e469	0.015855985
73	0x3d3c5bb4	0.045985892
74	0xbd359734	-0.04433365
75	0xbda2acd1	-0.07943118
76	0xbd14bc84	-0.036312595
77	0xbd9ad8fe	-0.07560919
78	0x3d0ed789	0.03487352
79	0xbd1a297f	-0.03763723
80	0x3bbdf551	0.0057970663
81	0x3c79c976	0.015245786
82	0xbd8f12ca	-0.069860056
83	0xbd9a29f1	-0.07527531
84	0x3cfae622	0.030627314
85	0xbd979fee	-0.07403551
86	0xbc256820	-0.010095626
87	0x3dac4bc0	0.08412886
88	0x3da63eb2	0.08117427
89	0xbdb287fa	-0.08717342
90	0xbd2ab5e5	-0.041677374
91	0x3da8d2ed	0.08243356
92	0xbb34e932	-0.0027604816
93	0x3c7ebc10	0.015547767
94	0x3d07fa1f	0.03319752
95	0xbbbfa34d	-0.0058483244
96	0x3c9c6dd2	0.019095335
97	0xba96c14f	-0.0011501702
98	0x3d5e95c9	0.054342065
99	0xbd9d7b58	-0.076895416
100	0xbd2b6393	-0.04184301
101	0x3f2f4f62	0.68480504
102	0xbcda3574	-0.026636817
103	0xbcb90f9a	-0.022590447
104	0xbd947e33	-0.07250633
105	0x3f01aa64	0.5065062
106	0xbd8b5c4f	-0.06804716
107	0x3c6c8d98	0.014438055
108	0x3e298206	0.16553506
109	0xbe08f8a0	-0.13376093
110	0x3d75eee1	0.060042266
111	0x3e7477e0	0.23873854
112	0x3cb1db7f	0.02171111
113	0xbe076b9c	-0.13224643
114	0xbe416e9a	-0.18889847
115	0x3dd9a892	0.10627855
116	0x3d9417f0	0.07231128
117	0xbe0afc44	-0.13572794
118	0x3d6a95a4	0.057271615
119	0x3c98f877	0.018673165
120	0xbe264959	-0.16238917
121	0xbb069933	-0.0020538091
122	0x3ba752e4	0.005106317
123	0x3c3a5443	0.011372629
124	0xbd175edb	-0.036955696
125	0xbc4bfe0a	-0.012450704
126	0x3ceefc64	0.029173084
127	0x3d77a6e0	0.06046188
128	0xbd094cf9	-0.033520672
129	0x3d6b1101	0.057389263
130	0xbda2ea83	-0.07954886
131	0xbd266b10	-0.040629447
132	0x3d5bb91f	0.053643342
133	0x3d2cdb44	0.042201295
134	0xbb1b4440	-0.0023691803
135	0xbd6e6af4	-0.058207467
136	0x3d370954	0.04468663
137	0x3d3b059b	0.045659643
138	0x3d889fcd	0.066711046
139	0xbcefaada	-0.029256273
140	0x3da2276d	0.07917676
141	0x3ced7419	0.028986024
142	0x3cd61ffa	0.026138294
143	0xbdb04333	-0.08606567
144	0xbc65dd49	-0.014029809
145	0x3d8a247c	0.0674524
146	0xbd9d7449	-0.07688195
147	0x3d0fa5f1	0.035070363
148	0x3c7abb4d	0.015303445
149	0x3d99f557	0.07517498
150	0xbcfdaf05	-0.030967245
151	0xbdbac182	-0.0911894
152	0xbdceeeb8	-0.10104126
153	0x3d8576ff	0.06516837
154	0x3d82e15e	0.06390642
155	0xbcdf87f2	-0.027286503
156	0xbc0d83d4	-0.008637387
157	0x3d2a8eef	0.04164022
158	0xbd992015	-0.07476822
159	0xbca880ba	-0.020569194
160	0x3d557a54	0.052118614
161	0xbdc3e570	-0.09565246
162	0x3cdc14f7	0.026865466
163	0x3d540136	0.051758967
164	0x3adab054	0.001668463
165	0xbd9d6a3c	-0.07686278
166	0xbdb3f411	-0.08786786
167	0xbd9c8864	-0.07643202
168	0x3d9a1b0a	0.075246885
169	0xbcf8615c	-0.030319862
170	0xbd8f434a	-0.06995256
171	0xbd0df81e	-0.03466045
172	0xbbb5e7bd	-0.005551307
173	0x3d2237b3	0.0396039
174	0xbd18e66f	-0.037329134
175	0x3d2b63b9	0.04184315
176	0x3d7a9f2f	0.061186966
177	0xbd17cc2e	-0.037059955
178	0xbc913f5b	-0.017730406
179	0xbda829b7	-0.082110815
180	0x3d14329c	0.036181077
181	0xbca061be	-0.019577857
182	0xbd77738a	-0.06041292
183	0xbac4dad8	-0.0015018834
184	0xbc581484	-0.013188485
185	0xbdb98458	-0.09058446
186	0xbd99909c	-0.07498285
187	0xbbfc9464	-0.007708119
188	0xbc4640d1	-0.012100414
189	0xbd5029d7	-0.05082115
190	0xbd5ca757	-0.053870525
191	0x3d79dfc9	0.061004434
192	0xbd2a8999	-0.04163513
193	0xbcc91b2f	-0.024549095
194	0xbdbdbbc8	-0.09264332
195	0xbdcb02fa	-0.09912677
196	0xbbd4dd29	-0.006496091
197	0x3cb1ec21	0.02171904
198	0xbcb7d8be	-0.022442218
199	0xbdb171fc	-0.08664319
200	0xbc946525	-0.018114636
201	0xbb8a3374	-0.0042175595
202	0x3c3840f3	0.011245954
203	0xbda9ce0e	-0.08291255
204	0x3cdfb0a9	0.027305918
205	0xbc9096bf	-0.017650006
206	0x3d7e8606	0.062139533
207	0x3d7cd8eb	0.061730307
208	0x3c8bdf50	0.017074257
209	0x3a924921	0.001116071
210	0xbcd1058e	-0.025515344
211	0xbc05bcba	-0.008162672
212	0xbd9d47a8	-0.07679683
213	0xbd98f55d	-0.07468674
214	0x3d8716c0	0.06596136
215	0x3c9fd028	0.019508436
216	0x3d8408bd	0.06446979
217	0x3aaa23b2	0.0012980609
218	0x3d8d37ef	0.06895434
219	0xbda656fc	-0.0812206
220	0x3ce57192	0.028008256
221	0xbd134018	-0.035949796
222	0x3c2a6d32	0.010402011
223	0xbdccaa46	-0.099934146
224	0xbd0d415d	-0.034486163
225	0xbcffb811	-0.0312157
226	0xbc552c16	-0.013010999
227	0x3da45197	0.080233745
228	0xbdc673a5	-0.09690026
229	0x3d843901	0.06456185
230	0xbd70025a	-0.058595993
231	0xbd90c26c	-0.07068333
232	0xbd4c3f9e	-0.049865358
233	0x3ce81449	0.028329985
234	0xbc634832	-0.013872193
235	0x3d5fe9ca	0.054666318
236	0xbd980a97	-0.07423895
237	0xbd3a21c5	-0.04544236
238	0xb992d903	-0.00028008976
239	0x3cc061d6	0.023484152
240	0x3d8b27c7	0.06794696
241	0xbd883944	-0.066515476
242	0xbda61699	-0.08109779
243	0x3b1b2bfd	0.0023677342
244	0x3d8e50e7	0.06949025
245	0xbd372c1a	-0.044719793
246	0xbdbdb820	-0.09263635
247	0x3d00c3b8	0.031436652
248	0xbd9a05ef	-0.07520663
249	0x3d6717b2	0.056419082
250	0xbd9c3226	-0.076267526
251	0x3d236628	0.039892346
252	0xbdc24fbb	-0.09487864
253	0xbdccdf82	-0.10003568
254	0xbda1a0f6	-0.07892029
255	0xbd9db3a7	-0.077002816

network.0.bias f4 [256]
0	0x3d937272	0.07199563
1	0xbcdf4967	-0.02725668
2	0x3d906ba0	0.07051778
3	0xbc45a2d0	-0.012062743
4	0x3d5e8d3d	0.054333914
5	0xbcf62647	-0.030047549
6	0xbd7d2023	-0.061798226
7	0xbd5feafd	-0.05466746
8	0xbdc50fc2	-0.09622146
9	0xbd8b3f4f	-0.067991845
10	0x3c93b215	0.018029252
11	0xbd25242f	-0.04031771
12	0xbd3d478e	-0.046210818
13	0x3d09b57e	0.03362035
14	0xbcdd0f76	-0.026984911
15	0x3d81a8a5	0.063309945
16	0x3c555ea2	0.0130230505
17	0xbd38f255	-0.04515298
18	0xbc2f82a8	-0.010712303
19	0xbd9479f3	-0.072498225
20	0xbc88612b	-0.016647896
21	0x3cc3f4cd	0.023920441
22	0x3d1880ee	0.037232332
23	0xbdd95e22	-0.106136575
24	0xbdd8f9cb	-0.10594519
25	0xbda2f924	-0.07957676
26	0xbdc06cd9	-0.09395761
27	0x3c51c8aa	0.01280419
28	0x3d95ad62	0.07308461
29	0x3d9c519f	0.076327555
30	0x3d9e1ad3	0.0771996
31	0xbd0868ef	-0.033303197
32	0xbcefb40d	-0.02926066
33	0x3d23b47a	0.039967038
34	0xbc8ab293	-0.016930854
35	0x3ce02a53	0.027363932
36	0xbd8010d7	-0.06253212
37	0xbc50d768	-0.012746669
38	0x3d78a89c	0.060707673
39	0x3c9538a1	0.01821548
40	0x3d898f97	0.06716841
41	0x3c2bb8cd	0.010481072
42	0xbdbd521a	-0.09244175
43	0xbcc6b3e0	-0.024255693
44	0xbd58def4	-0.052947
45	0x3d1605f5	0.036626775
46	0xbd77831f	-0.06042778
47	0x3d15e196	0.03659209
48	0x3d802cdd	0.06258557
49	0xbc8da608	-0.017291084
50	0xbd5a6581	-0.053319458
51	0xbdaef446	-0.08542685
52	0x3c619051	0.013767318
53	0xbb82009b	-0.0039673573
54	0x3cc37df3	0.023863768
55	0xbd7b55cf	-0.06136113
56	0xbd2cbe59	-0.042173717
57	0x3d3bf70b	0.045889895
58	0x3c38df17	0.0112836575
59	0x3d1c3eb6	0.038145743
60	0xbd41235e	-0.04715287
61	0xbb0212e0	-0.0019847676
62	0x3d8b953b	0.06815573
63	0x3d1fa905	0.03897955
64	0xb66c8363	-3.5243218e-06
65	0x3d9d1ae2	0.07671143
66	0x3d74279c	0.059608087
67	0xbd844e57	-0.06460255
68	0xbdaadf3a	-0.08343358
69	0x3d93ca31	0.07216299
70	0xbdc7ca11	-0.09755338
71	0x3da0c62f	0.078503005
72	0x3d073f47	0.03301933
73	0xbd99fdaf	-0.075190894
74	0xbdb8bf58	-0.09020871
75	0x3d7cf1e4	0.061754122
76	0x3bd7af95	0.0065822103
77	0x3d47f0c4	0.048813596
78	0x3d9743d8	0.07385987
79	0x3d4fc13d	0.050721396
80	0xbd3b6220	-0.045747876
81	0xbd85f769	-0.0654133
82	0xbdbd20f4	-0.09234801
83	0xbd36470f	-0.04450136
84	0xbc541e14	-0.012946624
85	0x3d8a748e	0.06760512
86	0x3ba96bd7	0.005170326
87	0x3d832fe9	0.064056225
88	0xbc288292	-0.010285037
89	0x3ce69dca	0.028151412
90	0xbd8edbd6	-0.06975524
91	0x3c6354ff	0.013875245
92	0xbd9a09f1	-0.075214274
93	0x3d2e22e3	0.04251374
94	0xbdb24d21	-0.087061174
95	0x3d119e99	0.03555164
96	0x3d351ed7	0.044218864
97	0xbdbc4fdd	-0.0919492
98	0xbc96c194	-0.018402852
99	0xbdb798d3	-0.08964696
100	0xbd5193e7	-0.05116644
101	0x3d96e7ee	0.07368456
102	0xbd351512	-0.044209547
103	0xbd5172a7	-0.05113473
104	0xbd9ca57a	-0.0764875
105	0x3d8582ff	0.06519126
106	0x3d07e3cb	0.033176225
107	0xbdc70137	-0.097170286
108	0xbcafd5d0	-0.021464258
109	0x3d91da38	0.071217
110	0xbd7cbc4f	-0.061703023
111	0x3c53a52a	0.012917796
112	0xbc42e0dc	-0.011894431
113	0xbdcc0aa5	-0.09962968
114	0xbc35ce30	-0.011096522
115	0x3d324a7f	0.043528076
116	0xbc9842f8	-0.01858662
117	0xbd9e31e4	-0.0772436
118	0x3d4e82e4	0.050417796
119	0x3cf89766	0.03034563
120	0x3d297a72	0.04137654
121	0xbd670663	-0.056402575
122	0x3be10b35	0.006867791
123	0xbcc2105c	-0.023689441
124	0xbd8eacd6	-0.069665596
125	0x3d0b1861	0.033958796
126	0xbc24fffe	-0.010070799
127	0xbcabec60	-0.020986736
128	0x3d80abac	0.06282744
129	0xbdcff3e4	-0.1015394
130	0xbc84ebc0	-0.016225696
131	0x3ca10c44	0.019659169
132	0x3d6cbc99	0.05779705
133	0xbd74d690	-0.059774935
134	0xbdc17f83	-0.09448149
135	0x3d4b5422	0.049640782
136	0xbc505e1b	-0.012717749
137	0xbd87c52b	-0.06629404
138	0x3caa2c1d	0.020772988
139	0xbd06457d	-0.032781113
140	0xbd307177	-0.04307696
141	0xbd356357	-0.04428419
142	0xbd308cb9	-0.043102954
143	0xbb8de6aa	-0.004330476
144	0x3c8d2f0f	0.017234353
145	0xbda448c0	-0.080216885
146	0xbd2f54fe	-0.042805664
147	0xbda26133	-0.079286955
148	0x3c9401c3	0.018067246
149	0xbd55081d	-0.05200969
150	0xbdcda3a5	-0.10040978
151	0xbdc17046	-0.094452426
152	0x3cc71ec7	0.024306668
153	0xbd9982a6	-0.07495622
154	0xbdaf0868	-0.08546525
155	0x3bf677b0	0.007521592
156	0x3b928573	0.004471475
157	0x3c65b670	0.014020547
158	0xbd5a1095	-0.05323847
159	0xbd34befd	-0.044127453
160	0xbd454be8	-0.048168093
161	0xbce5f018	-0.028068587
162	0xbdac8685	-0.08424095
163	0x3d783f6f	0.06060737
164	0x3bd778c8	0.0065756775
165	0xbd7ad785	-0.06124069
166	0xbdc31546	-0.09525542
167	0xbde02bc1	-0.109458454
168	0x3d937920	0.07200837
169	0xbdc123c2	-0.094306484
170	0xbd91a267	-0.07111054
171	0xbdb32975	-0.08748142
172	0xbda26b0b	-0.07930573
173	0xbd7dd4ab	-0.061970394
174	0xbc3ec9c5	-0.011644785
175	0xbd96eee2	-0.07369782
176	0x3d94da1b	0.07268163
177	0xbcf1b7d6	-0.029506605
178	0x3c2dfaf8	0.010618918
179	0xbdc784b0	-0.09742105
180	0xbcbbb760	-0.022914588
181	0x3c72c694	0.0148178525
182	0x3cd6e204	0.02623082
183	0xbdabbe30	-0.08385885
184	0xbd1eae06	-0.03874018
185	0xbdd0ad24	-0.10189274
186	0x3d9046c8	0.070447505
187	0xbd405f2c	-0.046965763
188	0xbd83d186	-0.06436448
189	0x3d802d53	0.06258645
190	0x3d5113d6	0.051044308
191	0xbc2cdb0d	-0.010550273
192	0x3d56cb52	0.052439995
193	0x3cadac24	0.021200247
194	0x3d6d8ad6	0.057993732
195	0xbcba3812	-0.022731815
196	0xbd072b79	-0.033000443
197	0xbd8ae9ac	-0.067828506
198	0x3cd71b0e	0.026258018
199	0xbd26f3f3	-0.04075999
200	0xbdb76f3e	-0.08956765
201	0xbd021ffc	-0.031768784
202	0xbd0ca28d	-0.034334708
203	0xbc39cb18	-0.011339925
204	0x3d2291fa	0.039689995
205	0xbdb04d0a	-0.08608444
206	0xbd601ece	-0.054716878
207	0xbd260c75	-0.040539224
208	0xbaedbb68	-0.0018137516
209	0xbd10e4d8	-0.035374492
210	0xbc580816	-0.013185522
211	0x3d88f5ad	0.06687484
212	0xbda65a14	-0.0812265
213	0x3d82ecfd	0.06392858
214	0xbd8e393c	-0.0694451
215	0x3cc4b037	0.024009807
216	0xbd6f8d77	-0.05848452
217	0x3d8f871f	0.07008194
218	0x3ac79c2b	0.0015229037
219	0xbd8f3a26	-0.06993513
220	0x3d7a7b24	0.061152592
221	0xbda4660a	-0.08027275
222	0xbd464c04	-0.048412338
223	0xbd92f4cf	-0.071756
224	0xbc710c5c	-0.014712419
225	0xbdc5bd23	-0.096552156
226	0xbd8965b3	-0.06708851
227	0xbd4c52cf	-0.04988366
228	0xbb86a77f	-0.0041093226
229	0x3ca00bc2	0.019536857
230	0x3d20aba2	0.03922618
231	0x3cae2944	0.021259911
232	0x3b134118	0.0022469219
233	0x3a5c63a7	0.00084071833
234	0xbd8ddf94	-0.0692741
235	0xbd63d8ee	-0.055626802
236	0x3d61dd39	0.055142615
237	0xbd1dabd3	-0.038493942
238	0xbd829f52	-0.06378044
239	0xbccc3c76	-0.024931174
240	0x3d0489a4	0.032357827
241	0x3b0ac3ad	0.002117376
242	0x3d8d3d18	0.06896418
243	0x3d783d5a	0.060605384
244	0x3d24d379	0.04024074
245	0x3c4f800f	0.012664809
246	0xbbfd2790	-0.0077256635
247	0xbd815e3e	-0.063168034
248	0x3d9d292b	0.07673868
249	0x3cb36bc8	0.02190198
250	0xbd202551	-0.039098088
251	0x3c31d430	0.010853812
252	0x3d825c85	0.06365303
253	0x3d9228e9	0.07136709
254	0x3c39a460	0.011330694
255	0x3d436b59	0.047709797

network.2.weight f4 [256, 256]
0	0xbd897914	-0.06712547
1	0x3ce26fa0	0.027641118
2	0x3abde72e	0.0014488453
3	0xbd3933cc	-0.045215413
4	0x3d01451c	0.03156005
5	0xbc17f65d	-0.009275046
6	0xbd1d39ea	-0.03838531
7	0xbd1f4c45	-0.038891096
8	0x3be8fdd5	0.0071103373
9	0x3d645859	0.055748317
10	0xbbc9d080	-0.0061588883
11	0xbc7f40cf	-0.015579416
12	0xbd1a7cd9	-0.03771672
13	0x3c9eee68	0.01940079
14	0x3d0d3d08	0.034482032
15	0xbd1a3319	-0.037646387
16	0xbd0a0aca	-0.033701696
17	0xbc96b084	-0.018394716
18	0x3c80745c	0.015680484
19	0xbd035836	-0.032066546
20	0x3d4160da	0.047211505
21	0x3a2c7238	0.0006578299
22	0x3d1b132f	0.03786009
23	0x3c7f2d43	0.015574756
24	0x3d00e5f1	0.03146929
25	0xbd68f898	-0.056877702
26	0xbd0f4b56	-0.034983955
27	0x3b879151	0.004137196
28	0x3d5292f6	0.051409684
29	0xbba3443d	-0.0049825
30	0x3d488172	0.048951574
31	0x3d0d3254	0.034471825
32	0x3acd1d80	0.001564905
33	0xbcaa2490	-0.020769387
34	0xbd18f569	-0.037343416
35	0x3bbda492	0.0057874406
36	0xbd600ba2	-0.054698594
37	0x3c4c4e30	0.012469813
38	0x3d0d33d6	0.034473263
39	0x3cf99b7c	0.030469649
40	0x3d43e864	0.047829047
41	0x3d62a4d8	0.05533299
42	0xbd1336e7	-0.03594103
43	0xbd627d53	-0.0552953
44	0x3c965934	0.018353082
45	0xbd7cea62	-0.061746962
46	0xbd7803d2	-0.06055052
47	0xbd902043	-0.070374034
48	0x3cee4e00	0.029089928
49	0x3d34988b	0.04409079
50	0xbb4d2520	-0.0031302646
51	0x3cc1e440	0.023668408
52	0x3ade8528	0.001697694
53	0xbd7eb418	-0.06218347
54	0xbc810761	-0.015750589
55	0xbd3e964a	-0.046530046
56	0xbc764388	-0.015030749
57	0x3d2db138	0.042405337
58	0xbabddd5a	-0.0014485524
59	0xbd81a26d	-0.063298084
60	0x3c8789d2	0.01654521
61	0xbbb43830	-0.005499862
62	0xbd3dda90	-0.046351016
63	0xbc96ebae	-0.018422928
64	0x3c0ca215	0.008583565
65	0x3d2a3830	0.04155749
66	0x3c02a870	0.007974729
67	0xbd062f16	-0.03275975
68	0xbd1e2f0f	-0.038619097
69	0xbd357db4	-0.044309333
70	0x3cbc83b6	0.023012023
71	0xbc5ffb40	-0.0136707425
72	0x3d04b1b6	0.03239604
73	0xbd3ad6b4	-0.045614913
74	0xbceb23a7	-0.028703524
75	0xbc9bf643	-0.019038325
76	0xbcfaa197	-0.03059463
77	0x3d74431c	0.059634313
78	0x3d6905f8	0.056890458
79	0xbbeb5533	-0.0071817874
80	0x3d5e7a2c	0.05431573
81	0x3d18669b	0.037207227
82	0x3cd6ea24	0.026234694
83	0x3c806948	0.015675202
84	0xbcfb5408	-0.030679718
85	0x3d0691b0	0.032853782
86	0xbccc0148	-0.024902955
87	0xbcb5d29c	-0.022195153
88	0xbd31ed63	-0.04343928
89	0xbd1edfa2	-0.03878749
90	0xbc1c798b	-0.0095504625
91	0xba568a36	-0.0008184047
92	0x3d375470	0.04475826
93	0x3c85e2c1	0.016343476
94	0xbd8a0ec3	-0.06741097
95	0xbcac6fe3	-0.021049445
96	0x3ac4bedf	0.0015010497
97	0x3d3161ec	0.043306276
98	0xbcde88ee	-0.027164903
99	0xbc206c39	-0.009791427
100	0x3c8332b0	0.01601538
101	0x3bc24c00	0.00592947
102	0xbd2bd5ab	-0.041951817
103	0x3c3b0030	0.011413619
104	0x3d27e79a	0.040992357
105	0xbd606c20	-0.054790616
106	0xbd783278	-0.060595006
107	0xbd11c444	-0.035587564
108	0x3c3e4e30	0.011615321
109	0x3d31f197	0.04344329
110	0xbd68c29e	-0.056826226
111	0xbc3ad2a0	-0.011402756
112	0x3c936e71	0.017996999
113	0xbd54c6cb	-0.051947396
114	0xbd8ce64e	-0.06879865
115	0x3c4a2325	0.012337481
116	0x3d4ae9c0	0.049539328
117	0x3d5adf9c	0.053435907
118	0x3cd67a62	0.026181404
119	0x3cb35bcb	0.021894356
120	0xbcdae71c	-0.02672153
121	0x3ce64b2a	0.028112013
122	0x3b99662c	0.0046813693
123	0xbd5d624e	-0.05404883
124	0x3d5ec562	0.054387458
125	0xbcb5365c	-0.022120647
126	0x3c09bbe8	0.008406617
127	0xba365387	-0.00069551956
128	0xbd22ed33	-0.039776992
129	0xbc997054	-0.01873032
130	0xbd461654	-0.048361138
131	0xbc148d81	-0.00906694
132	0x3cfc60af	0.030807821
133	0x3ca68b09	0.020329969
134	0xbb59eadf	-0.0033251566
135	0xbc8c9730	-0.017161936
136	0xbcce13ac	-0.025155865
137	0x3c8b0360	0.016969383
138	0xbce799a1	-0.028271498
139	0xbd7e89a2	-0.062142976
140	0x3c8d7a18	0.017270133
141	0xbd82faf5	-0.063955225
142	0xbc872b30	-0.016500086
143	0xbc1edee0	-0.009696692
144	0xb9913d5d	-0.00027702274
145	0xbcfa243c	-0.030534856
146	0xbb1d7a27	-0.0024029107
147	0x3c8c73a4	0.017144985
148	0xbd2fe539	-0.042943213
149	0x3c591991	0.013250724
150	0xbc9e8a67	-0.019353105
151	0xbaa7b7dd	-0.0012795884
152	0xbc66ba72	-0.014082538
153	0x3cff8f38	0.031196222
154	0xbb3f2451	-0.0029165933
155	0xbc83e19c	-0.01609879
156	0x3d36538b	0.044513267
157	0x3bb5b3a0	0.0055450946
158	0xbcd3e8bb	-0.02586781
159	0x3c4ad6a8	0.01238028
160	0x3d468545	0.04846694
161	0xbc178c00	-0.009249687
162	0xbd4e889f	-0.05042326
163	0x3b2aedc0	0.0026081651
164	0x3c258e7e	0.010104774
165	0xbd447c68	-0.047970206
166	0x3cf7542c	0.030191503
167	0xbd82cbd7	-0.063865356
168	0xbc2b30fe	-0.010448692
169	0x3d64df57	0.055877056
170	0xbd76686e	-0.060158186
171	0x3cc1f120	0.023674548
172	0xbca6527c	-0.020303003
173	0x3d42c185	0.047547836
174	0xbca1ef2c	-0.019767366
175	0xbd4cbd53	-0.04998524
176	0x3d555de7	0.052091505
177	0x3d1d9cfb	0.038479786
178	0x3cfe8428	0.031068876
179	0x3ce9d48d	0.028543735
180	0x3a87507e	0.0010323671
181	0xbcdec2a0	-0.027192414
182	0xbd32fb00	-0.043696404
183	0x3d7652b6	0.060137473
184	0xbb90013d	-0.004394679
185	0xbd401d9a	-0.04690323
186	0xbc51c061	-0.012802214
187	0x3d851093	0.06497302
188	0x3ba2ab47	0.0049642655
189	0xbc0e0a1d	-0.008669403
190	0xbd4030b0	-0.046921432
191	0xbb6f7d40	-0.003654316
192	0x3b2a8c84	0.0026023695
193	0x3d3f5ee2	0.046721347
194	0x3d251c60	0.040310264
195	0x3d730907	0.05933478
196	0xbc9cc7f8	-0.019138321
197	0x3d16ee53	0.036848377
198	0xbc29e985	-0.010370617
199	0xbd21633b	-0.039401274
200	0xbd3001c1	-0.042970423
201	0x3d84361f	0.06455635
202	0x3d13a562	0.036046393
203	0x3d7c9d86	0.061673664
204	0xbcad32cf	-0.021142391
205	0x3d449d50	0.048001587
206	0xbc5e6a5d	-0.013575164
207	0x3d04015e	0.032227866
208	0xbd8c048c	-0.06836805
209	0x3c6e9478	0.014561765
210	0x3cde3464	0.027124591
211	0xbcfaed00	-0.030630589
212	0xbd457c3c	-0.048214182
213	0x3c05dc63	0.00817022
214	0x3cec7524	0.02886445
215	0xbd5146fe	-0.051093094
216	0x3cf3ad18	0.029745623
217	0xbd922dff	-0.07137679
218	0x3d6f6f65	0.058455843
219	0x3d1036c5	0.035208482
220	0x3c682bbf	0.014170586
221	0x3cf59221	0.029976906
222	0xbd4187e3	-0.047248732
223	0xbd943111	-0.07235921
224	0xbcff10f7	-0.03113602
225	0xbc6a53a5	-0.014302169
226	0x3ce8b18d	0.028404975
227	0x3cfb25a6	0.0306576
228	0x3d2c19ea	0.0420169
229	0xbd17ee85	-0.037092704
230	0xbc6c8498	-0.01443591
231	0x3c0ebd4a	0.008712122
232	0xbd3c08a1	-0.045906667
233	0x3d0cd0f8	0.034378976
234	0x3ba0acc2	0.004903407
235	0x3ceaa360	0.028642356
236	0xbcc18419	-0.02362256
237	0xbb4bc838	-0.0031094681
238	0xbd268d6a	-0.040662207
239	0x3cb56e17	0.022147221
240	0xbd65962a	-0.05605141
241	0x3d42557a	0.047444798
242	0xbd8bee23	-0.0683253
243	0xbc928b1a	-0.017888594
244	0x3d6acb26	0.057322644
245	0xbd185a64	-0.03719558
246	0x3d7626fe	0.06009578
247	0x3d6578ec	0.056023523
248	0xbd24eba2	-0.04026378
249	0xbd6e9bd0	-0.058254063
250	0xbd16ba0a	-0.036798514
251	0xbcdf3d60	-0.027250946
252	0x3caeb3b2	0.02132592
253	0xbd54c8bc	-0.051949248
254	0x3c1fcaa7	0.009752906
255	0xbbdc26b5	-0.0067184814

network.2.bias f4 [256]
0	0x3b356c76	0.0027683056
1	0xbc590371	-0.013245449
2	0xbd807f4c	-0.0627428
3	0x3b9820e1	0.0046425913
4	0xbdd426c3	-0.10358956
5	0xbd3fa5b9	-0.046788905
6	0xbbf4d863	-0.0074720844
7	0x3dcff2ac	0.10153708
8	0x3cfe3f43	0.031036025
9	0x3cad7fc8	0.021179095
10	0xbd527d6f	-0.051389154
11	0x3dcf8b54	0.101339966
12	0xbd9664b3	-0.073434256
13	0xbd8707a3	-0.065932535
14	0x3bd682c8	0.006546352
15	0xbd958b90	-0.0730201
16	0xbd1dd155	-0.038529713
17	0xbd63662f	-0.05551737
18	0xbd5d8eef	-0.05409139
19	0xbdbb8835	-0.09156839
20	0xbe00e5b6	-0.12587628
21	0xbd959d33	-0.07305374
22	0xbcdbb548	-0.02681984
23	0xbdeb97f9	-0.11503596
24	0x3d822f7b	0.063567124
25	0xbcd93620	-0.026515067
26	0xbc9d1fed	-0.019180262
27	0x3a370827	0.0006982111
28	0xbab171ae	-0.0013537908
29	0xbd56cb2a	-0.052439846
30	0xbe010252	-0.12598541
31	0x3cab5f59	0.020919489
32	0xbdc7dedf	-0.09759306
33	0xbb9a36ea	-0.0047062533
34	0xbd397ae6	-0.04528322
35	0x3d192bc8	0.03739527
36	0xbd8d3232	-0.068943396
37	0xbda821ed	-0.08209596
38	0xbd638c53	-0.055553745
39	0xbdb9e33c	-0.09076545
40	0x3d660253	0.05615456
41	0xbd8e1a32	-0.0693859
42	0xbbc68b0e	-0.006059057
43	0xbd0e42b8	-0.034731597
44	0x3cfb2633	0.030657863
45	0xbd125714	-0.035727575
46	0xbc41ad6a	-0.01182113
47	0xbde9ce3d	-0.1141629
48	0x3d1982f5	0.037478406
49	0xbe2ff2e2	-0.17182496
50	0xbcc0ebd8	-0.023549959
51	0xbd1cbc49	-0.0382655
52	0xbd5c8487	-0.053837325
53	0xbdb96e38	-0.09054226
54	0x3e0d66d8	0.13808763
55	0xbe295623	-0.16536765
56	0xbd5a3ce6	-0.053280734
57	0x3d16d773	0.036826562
58	0xbce71e73	-0.028212762
59	0xbd296698	-0.041357607
60	0xbd6cb9b5	-0.05779429
61	0xbdbc6bef	-0.09200274
62	0x3a78bc61	0.000948852
63	0xbd06f77a	-0.032950856
64	0xbc8a0046	-0.016845834
65	0xbcd1f7a3	-0.025630778
66	0xbd888be9	-0.06667311
67	0xbce61c2a	-0.028089602
68	0x3d16a9c3	0.03678299
69	0xbd2ffa8b	-0.042963546
70	0x3d23dbaf	0.04000443
71	0x3a8a622e	0.0010557824
72	0xbe3f195c	-0.18662018
73	0x3d8844b6	0.066537306
74	0xbcbdc436	-0.02316485
75	0xbd3b4464	-0.04571952
76	0x3cab306e	0.020897117
77	0x3cc0cfee	0.023536649
78	0xbdb67404	-0.08908847
79	0xbcae7a61	-0.02129859
80	0xbd747ece	-0.059691243
81	0xbcf79622	-0.030222956
82	0xbcb94bc2	-0.022619132
83	0xbd2cfd6d	-0.042233873
84	0x3c5cbe70	0.013473138
85	0xbd91d854	-0.071213394
86	0xbcc14587	-0.023592724
87	0xbd9dfc0a	-0.07714088
88	0xbd965485	-0.073403396
89	0xbd134407	-0.035953548
90	0xbe0d9bd1	-0.1382897
91	0xbce47553	-0.027887976
92	0x3ad40a5d	0.0016177405
93	0xbe29ef37	-0.1659516
94	0xbdb0c4f4	-0.08631316
95	0xbcae1b60	-0.021253288
96	0x3d3a2921	0.04544938
97	0x3ccb103c	0.024788015
98	0xbd23fe65	-0.04003753
99	0xbd5253c2	-0.05134941
100	0xbbf1a8f8	-0.007374879
101	0xbda12b0d	-0.078695394
102	0x3c026828	0.007959403
103	0x3c524783	0.012834433
104	0xbd238cb0	-0.039929092
105	0xbd9068ce	-0.0705124
106	0xbd2819b4	-0.041040137
107	0x3cb2a08d	0.021805072
108	0x3c05840b	0.008149157
109	0xbd6a0124	-0.057129994
110	0x3def7544	0.116922885
111	0xbd9927fe	-0.07478331
112	0x3d45b7c5	0.04827096
113	0x3cc9da96	0.024640363
114	0xbd38d630	-0.04512614
115	0x3cb2eeb6	0.021842342
116	0xbbb85a3a	-0.00562599
117	0xbd8d525d	-0.06900475
118	0xbd4d5394	-0.050128534
119	0xbca90502	-0.02063227
120	0x3cddf7ce	0.027095702
121	0x3c712977	0.014719359
122	0xbd6c7241	-0.05772615
123	0xbdb0dd64	-0.08635977
124	0x3c21b3ba	0.00986951
125	0xbdd284a8	-0.102792084
126	0xbd6e411c	-0.058167562
127	0x3cfe7a63	0.031064218
128	0x3d3b20ee	0.0456857
129	0x3e166276	0.14685997
130	0xbd1108e0	-0.035408854
131	0xbceff406	-0.029291164
132	0x3e46d7e9	0.194183
133	0xbd2b8a97	-0.041880216
134	0xbdb9e580	-0.09076977
135	0xbd060f4b	-0.03272943
136	0xbb66a46e	-0.0035193223
137	0xbb3b5321	-0.0028583484
138	0x3daf1581	0.085490234
139	0xbc50df00	-0.01274848
140	0xbd6e6d11	-0.058209483
141	0xbd4137a7	-0.047172215
142	0x3c80fe88	0.01574637
143	0xbc25b30b	-0.010113488
144	0xbc205ce4	-0.009787772
145	0xbc0239e2	-0.007948371
146	0xbd931e08	-0.071834624
147	0x3c15792c	0.009123128
148	0x3e02f90d	0.12790318
149	0x3cc5e706	0.024158012
150	0xbd43a067	-0.047760393
151	0xbd71e733	-0.05905838
152	0xbdc93432	-0.098244086
153	0xbda37a3a	-0.07982297
154	0xbcc124eb	-0.023577174
155	0x3dbd3e1d	0.09240363
156	0xbd3c21fa	-0.04593084
157	0xbd49ea4b	-0.049295705
158	0x3ce20bc3	0.027593499
159	0x3bc8c3ca	0.0061268555
160	0xbca7a2bc	-0.02046334
161	0xbd81cbc6	-0.06337695
162	0xbe0652e8	-0.13117564
163	0xbbcf5c65	-0.006328153
164	0xbdc65518	-0.09684199
165	0x3d04dbe9	0.032436285
166	0xbda09771	-0.07841385
167	0x3bc36b5e	0.005963727
168	0xbc142c1d	-0.009043721
169	0xbcf30e3c	-0.029669873
170	0xbd22d0cc	-0.039749905
171	0xbdcbc2d9	-0.099492736
172	0x3c70d89a	0.014700079
173	0xbd0e1484	-0.034687534
174	0xbd651dbd	-0.055936564
175	0xbd18c23c	-0.03729461
176	0x3c94e64d	0.018176222
177	0xbdac2d1b	-0.08407041
178	0xbd70edd0	-0.058820546
179	0x3da9630e	0.08270846
180	0xbd75e7d1	-0.06003553
181	0x3cae5fa5	0.021285841
182	0xbda1870a	-0.07887085
183	0xbe2e6c6c	-0.17033547
184	0x3cd98b2e	0.026555624
185	0xbd572caa	-0.05253283
186	0xbd0a32a7	-0.033739712
187	0xbd16af7c	-0.03678845
188	0x3ca4fa6a	0.020138938
189	0xbdb5c5b7	-0.08875602
190	0x3c126f82	0.008937718
191	0xbd1fa9ac	-0.03898017
192	0xbd2d9779	-0.042380784
193	0x3bbb28dd	0.0057116584
194	0xbe0d6f11	-0.138119
195	0xbd9e6b20	-0.07735276
196	0x3d663b1f	0.056208726
197	0xba3dab42	-0.0007235297
198	0xbd63afc9	-0.055587564
199	0xbdf727d2	-0.12068142
200	0xbdb57803	-0.08860781
201	0xbda0caca	-0.07851179
202	0xbd989d56	-0.074518844
203	0xbd321f99	-0.043487165
204	0xbd81d435	-0.063393034
205	0xbd9a8989	-0.07545764
206	0xbded33f7	-0.11582177
207	0xbc70d40d	-0.014698994
208	0xbe1ae49a	-0.15126267
209	0xbd5ee761	-0.05441988
210	0x3e4687f3	0.19387798
211	0xbd1b1682	-0.037863262
212	0xbbdf618d	-0.006817049
213	0x3c21939e	0.009861855
214	0xbd94df7d	-0.072691895
215	0x3c5712c6	0.0131270345
216	0x3d373d5e	0.04473626
217	0x3e16c6b0	0.14724231
218	0xbdc6d125	-0.0970786
219	0xbd31bdbc	-0.043393835
220	0xbccdf50c	-0.025141262
221	0x3d49ca42	0.049265154
222	0xbd1fc7cf	-0.03900891
223	0x3c31a5fa	0.010842795
224	0xbd107f87	-0.03527787
225	0xbdb55195	-0.08853451
226	0x3d880313	0.06641211
227	0xbc526018	-0.012840293
228	0x3a297b67	0.0006465227
229	0x3c89da06	0.016827594
230	0xbda4e918	-0.080522716
231	0x3ca1499f	0.019688426
232	0xbdc14712	-0.09437384
233	0xbdbca635	-0.09211389
234	0x3d686bf9	0.056743596
235	0xbd87f393	-0.06638255
236	0xbb994b48	-0.0046781637
237	0x3c1fa159	0.009743058
238	0xbe1bf599	-0.15230407
239	0x3c917a73	0.017758584
240	0xbda9a62c	-0.08283648
241	0x3c5c656e	0.013451917
242	0xbcae5d9e	-0.021284875
243	0x3c1bf850	0.0095196515
244	0xbd873d07	-0.06603437
245	0xbd60cc35	-0.054882247
246	0xbe16c182	-0.14722255
247	0xbd9f9dd8	-0.07793778
248	0xbd8db00f	-0.06918346
249	0x3d64909b	0.05580197
250	0x3e3bfbcc	0.18357772
251	0x3c0c09f2	0.008547293
252	0xbdd5c71e	-0.10438369
253	0x3cedb6db	0.029017856
254	0xbd5ff945	-0.05468108
255	0x3c873cad	0.016508425

network.4.weight f4 [3, 256]
0	0xbd02af88	-0.03190568
1	0xbc189e08	-0.009315021
2	0xbd11dc45	-0.035610456
3	0xbb568fc3	-0.0032739497
4	0xbc82285d	-0.015888387
5	0xbc330a50	-0.010927752
6	0x3cdd478d	0.027011657
7	0x3be9b15e	0.0071317395
8	0x3c28ecb1	0.010310338
9	0xbc48b93a	-0.012251193
10	0x3d3df6e8	0.046378046
11	0x3cf4005e	0.029785331
12	0xbb92ac31	-0.004476093
13	0x3d1cfdbd	0.03832792
14	0x3cd13700	0.025538921
15	0xbcc3ff1f	-0.023925362
16	0xbd5828c6	-0.05277326
17	0xbc5f8bb3	-0.013644147
18	0x3c879b72	0.016553614
19	0x3ba88484	0.00514275
20	0xbb65cd64	-0.003506505
21	0x3aac5de1	0.0013150537
22	0x3cb644e9	0.022249656
23	0x3c5fc824	0.013658557
24	0x3c20e985	0.0098213
25	0xbc67def9	-0.014152282
26	0x3baebc80	0.0053325295
27	0xbbc2bc56	-0.0059428615
28	0xbd5b3b64	-0.053523436
29	0xbc550436	-0.013001492
30	0xbc6709cd	-0.014101458
31	0xbd3ae543	-0.045628797
32	0xbc98a1dc	-0.018631868
33	0x3d855e73	0.065121554
34	0x3d41bd32	0.04729957
35	0x3c5dda68	0.013540842
36	0x3c26de59	0.010184848
37	0xbb8bab0e	-0.0042623347
38	0xbbfaaf62	-0.007650302
39	0xbbd3944a	-0.0064568864
40	0xbcfcb933	-0.030850029
41	0x3bf09331	0.0073417653
42	0x3c13c247	0.009018487
43	0x3d09a192	0.03360135
44	0x3d677340	0.056506395
45	0xbd2cbbed	-0.042171407
46	0x3c19c6ce	0.009385778
47	0x3bcea79c	0.0063066017
48	0x3c879e61	0.016555013
49	0xbc7066ea	-0.014672974
50	0xbc4e5615	-0.012593766
51	0xbcaae4ec	-0.020861112
52	0xbd1268f1	-0.03574461
53	0x3ccff4f9	0.025385367
54	0x3c833c82	0.016020063
55	0xbcc859e1	-0.02445692
56	0x3cb1ee7b	0.021720162
57	0x3c2b26f0	0.010446295
58	0xbb30966d	-0.002694513
59	0xbc3ac655	-0.011399825
60	0xbba3228b	-0.004978483
61	0x3d041710	0.032248557
62	0xbc7860a6	-0.0151597615
63	0xbdc6fa2f	-0.097156875
64	0xbc84d55c	-0.016215019
65	0xbcc4bfbd	-0.02401721
66	0xbc34dfc0	-0.011039674
67	0xbc6001d3	-0.01367231
68	0x3c61298a	0.013742814
69	0xbc4d7dc3	-0.012542191
70	0xbb9e0f64	-0.004823612
71	0xbc96f9d1	-0.018429669
72	0x3c4349d1	0.011919455
73	0x3bc29854	0.005938569
74	0x3b0ff430	0.0021965615
75	0x3c98f7dc	0.018672876
76	0xbd092214	-0.033479765
77	0xbcdc6cda	-0.026907373
78	0xbc9189db	-0.01776593
79	0xbd737911	-0.05944163
80	0x3c831bc0	0.016004443
81	0xbcc1ae61	-0.02364272
82	0x3c84e13e	0.016220685
83	0xbc5f31d6	-0.013622722
84	0x3c326dfd	0.010890481
85	0x3c8109ed	0.015751803
86	0x3cb5a1d2	0.022171889
87	0xbcde756b	-0.027155599
88	0xbbb7fa30	-0.0056145415
89	0xbc78ee54	-0.015193541
90	0xbc2f5442	-0.010701241
91	0xbcfdd157	-0.03098361
92	0xbbc1c35b	-0.0059131808
93	0xbc02a747	-0.007974452
94	0x3c54657c	0.012963649
95	0x3c4a45dd	0.012345758
96	0x3ae0a6e6	0.0017139583
97	0x3c355710	0.011068121
98	0x3bbcae49	0.005758081
99	0x3b9f664c	0.0048644897
100	0xbd41c11e	-0.04730331
101	0xbc20ed18	-0.009822153
102	0x3c84b63d	0.01620018
103	0x3ce67eec	0.028136693
104	0xbca5aa52	-0.020222817
105	0xbbb9e891	-0.005673476
106	0xbc8ac5de	-0.016940054
107	0xbb439353	-0.002984245
108	0x3c5af9f3	0.013365257
109	0x3c6a7a81	0.014311434
110	0x3c92d8e0	0.01792568
111	0xbc3070fc	-0.010769125
112	0x3c1b0cc8	0.0094634965
113	0x3d266121	0.040619973
114	0xbc9f1578	-0.019419417
115	0x3c32ff4a	0.0109251235
116	0x3ad742b6	0.001642308
117	0x3abd744d	0.0014454216
118	0x3d14bf94	0.036315516
119	0xbc11b3f6	-0.008893004
120	0x3c584010	0.013198867
121	0xbb924335	-0.004463578
122	0x3bf417b3	0.007449114
123	0x3bc5e31f	0.006039038
124	0xbc27acca	-0.010234067
125	0xbbb20f6a	-0.0054339664
126	0xbbe9e611	-0.0071380218
127	0x3c426913	0.011865872
128	0x3c432f05	0.011913066
129	0x3c3b448f	0.01142992
130	0x3c8c49ea	0.017125089
131	0xbc12dc61	-0.008963675
132	0x3c438216	0.01193287
133	0x3bf52499	0.0074811694
134	0x3c3da27c	0.011574384
135	0x3d33ce50	0.043897927
136	0x3d451fae	0.048125915
137	0xbc82ad33	-0.015951728
138	0x3cb5c6f6	0.022189599
139	0xbc540e0f	-0.012942805
140	0xbcc9d101	-0.024635794
141	0xbd4c636d	-0.049899507
142	0xbc36bbb1	-0.011153148
143	0xbcc47d03	-0.023985391
144	0xbd375e5b	-0.04476772
145	0x3a4e2cc6	0.0007864948
146	0x3ce83af5	0.028348425
147	0x3c4fb101	0.012676478
148	0x3c418abc	0.011812862
149	0x3c8d1cc8	0.017225638
150	0x3c6c3caf	0.014418765
151	0xbc1fb77f	-0.009748339
152	0x3d8e8417	0.06958788
153	0xbc88a6ac	-0.016681038
154	0xbcff5660	-0.031169116
155	0x3bf3906f	0.0074329893
156	0x3cb52d5f	0.022116361
157	0xbc6c2224	-0.014412437
158	0x3d044cc8	0.032299787
159	0xbbcabda5	-0.006187158
160	0x3bbe6479	0.005810317
161	0xb90a6f00	-0.00013202056
162	0xbbcccd52	-0.006250062
163	0x3c44000d	0.011962903
164	0xbd4ff1f2	-0.050767846
165	0x3c6179c7	0.013761944
166	0x3d709399	0.05873451
167	0x3bfb9704	0.0076779146
168	0x3d1fabbb	0.038982134
169	0xbb84af90	-0.004049249
170	0xbc6292da	-0.013828957
171	0x3c800cf7	0.015631182
172	0x3c725520	0.014790803
173	0x3d430ca1	0.047619466
174	0xbc1f1323	-0.009709152
175	0x3c8e4ed9	0.017371582
176	0x3c3f1c35	0.01166444
177	0xbc41151c	-0.011784818
178	0xbd3a1796	-0.04543265
179	0x3c5a7914	0.013334531
180	0x3bf2048a	0.007385795
181	0x3bf713bf	0.0075401957
182	0x3a57b0e9	0.0008227961
183	0xbc0bcc59	-0.008532607
184	0x3c429012	0.011875169
185	0x3c0edcc5	0.008719628
186	0x3ce4d6c6	0.027934443
187	0xbc19961e	-0.00937417
188	0xbb2920aa	-0.0025806823
189	0xbc37a8c0	-0.011209667
190	0x3c88458b	0.016634723
191	0x3c303598	0.010754965
192	0x3bed7d7a	0.007247624
193	0x3bea1eee	0.0071448004
194	0xbb82ec07	-0.003995422
195	0xbc1bdfd0	-0.00951381
196	0x3c824f31	0.015906902
197	0x3cc4c71e	0.024020728
198	0x3b01f0e6	0.0019827425
199	0xbc209216	-0.009800455
200	0x3d288ab2	0.041147895
201	0x3bb39287	0.005480114
202	0x3b8b0e9e	0.004243686
203	0x3c47867b	0.012178059
204	0x3d2971fe	0.041368477
205	0x3d0b5c24	0.03402342
206	0x3bc80ff6	0.0061054183
207	0xbcb1c05e	-0.021698173
208	0x3b1d2bd6	0.0023982427
209	0xbcda4209	-0.026642816
210	0x3cec4854	0.028843082
211	0xbd426861	-0.047462825
212	0x3ba2709e	0.0049572727
213	0x3c1a082f	0.009401365
214	0xbc543795	-0.012952705
215	0xbd18a3c9	-0.037265573
216	0xbc54c92b	-0.012987415
217	0x3c4dc1a3	0.012558374
218	0x3ac2e259	0.0014868482
219	0x3c3159ce	0.010824634
220	0xbb2d1506	-0.0026410236
221	0x3ca0a0c1	0.019607903
222	0xbcbc1fd4	-0.022964396
223	0xba4b36b5	-0.00077519874
224	0x3bd0268b	0.006352251
225	0xbbde5905	-0.0067855143
226	0x3cb4ae10	0.022055656
227	0xbcfcd36b	-0.03086253
228	0x3c3b19e5	0.011419748
229	0xbc8cd0f6	-0.017189484
230	0x3ca46c25	0.020071099
231	0x3d6556fa	0.05599115
232	0xbc0cacc1	-0.00858611
233	0x3b1e771f	0.0024179888
234	0x3c128790	0.008943453
235	0x3d1943ca	0.037418164
236	0xba973890	-0.0011537243
237	0xbd1adb5d	-0.037806857
238	0xbc33c0cc	-0.010971259
239	0xbcbe485b	-0.023227861
240	0x3c85c1a7	0.016327692
241	0x3b544e06	0.0032395138
242	0x3bcfabe6	0.0063376306
243	0xbcc01773	-0.023448681
244	0xbcb0604f	-0.021530299
245	0xbd4ecacd	-0.050486375
246	0xbc24ae8e	-0.010051383
247	0xbd03513b	-0.03205989
248	0xbd28838c	-0.041141078
249	0x3c5104db	0.012757505
250	0x3c407092	0.011745589
251	0x3c7e2ceb	0.015513639
252	0xbb906505	-0.0044065737
253	0xbc370f2e	-0.011173053
254	0xbd63dd67	-0.055631068
255	0x3c3bfc5e	0.011473743

network.4.bias f4 [3]
0	0x3e631d62	0.22179177
1	0x3e6cabe0	0.2311244
2	0x3e4ba009	0.19885267
