Freeway-runs/DDQN.pt (torch, 400682 bytes, 6 tensors)

network.0.weight f4 [256, 128]
0	0x3d7bb426	0.0614511
1	0xbd52a31f	-0.051425096
2	0xbd4e3db6	-0.05035182
3	0xbcde8108	-0.027161136
4	0xbd4ede33	-0.050504874
5	0x3c8347d6	0.016025465
6	0xbda10f6e	-0.07864271
7	0x3d10f21e	0.03538715
8	0x3cec9be0	0.02888292
9	0x3caac1b3	0.020844316
10	0x3d01cc06	0.031688713
11	0xbd3845e6	-0.044988535
12	0xbcee32e6	-0.029077005
13	0xbd9fe0dd	-0.07806561
14	0x3bbb6e80	0.0057199597
15	0xbd8b5954	-0.06804147
16	0xbcd995ae	-0.02656063
17	0xbd83835e	-0.06421541
18	0x3d84991b	0.06474515
19	0x3d7ad014	0.061233595
20	0xbd81cb18	-0.06337565
21	0x3d9a885d	0.075455405
22	0xbd4b02e0	-0.04956329
23	0x3d39ec16	0.045391165
24	0xbd4b1b5e	-0.049586646
25	0x3a17e8bc	0.0005794873
26	0xbd1c8145	-0.03820922
27	0x3be9a0a9	0.007129748
28	0x3d6d6c93	0.057964873
29	0xbd79de78	-0.06100318
30	0xbd186941	-0.037209753
31	0x3c8c71d3	0.01714412
32	0x3ccdede7	0.025137855
33	0xbd17ec65	-0.037090678
34	0x3cc721b5	0.024308065
35	0x3d435652	0.047689743
36	0xbdb892d9	-0.09012384
37	0x3d5bb60a	0.053640403
38	0x3cdc4168	0.026886657
39	0x3d3c7d5a	0.046017982
40	0xbd8909d1	-0.066913255
41	0xbd70f8d6	-0.05883106
42	0x3d9b4ebe	0.07583378
43	0xbd98954d	-0.07450352
44	0xbd3df62b	-0.046377342
45	0x3d416c3e	0.04722237
46	0xbcbfc510	-0.023409396
47	0x3c60201a	0.013679529
48	0x3d8e001c	0.069336146
49	0xbd7c6710	-0.061621726
50	0xbdb44dab	-0.088038765
51	0x3d71b9f5	0.059015233
52	0xbd719df8	-0.05898854
53	0x3d863e13	0.065548085
54	0x3c89db6d	0.016828263
55	0xbd971f6d	-0.07379041
56	0x3d18d98d	0.037316848
57	0x3d80a919	0.06282253
58	0x3d890ecf	0.06692278
59	0x39eadc85	0.00044796258
60	0x3d614b95	0.05500372
61	0x3c0b8ff1	0.008518205
62	0x3da91115	0.08255211
63	0x3d3a3291	0.04545838
64	0xbce36151	-0.027756365
65	0xbd779d5d	-0.060452808
66	0xbd84475a	-0.06458922
67	0xbd7844fd	-0.060612667
68	0x3d04a037	0.032379355
69	0xbd8b19ed	-0.06792054
70	0xbd6a2fb8	-0.057174414
71	0x3d11c299	0.035585973
72	0x3d8a00f5	0.06738464
73	0xbd7a5f2a	-0.06112591
74	0x3cc1d247	0.023659838
75	0xbc48265f	-0.01221618
76	0xbd03d08d	-0.03218131
77	0xba1a19e1	-0.000587849
78	0xbd8a64ae	-0.067574844
79	0x3c93ecc1	0.018057229
80	0x3d5b071b	0.053473573
81	0xbd9b972b	-0.075971924
82	0xbce2a48d	-0.027666355
83	0xbdb181a5	-0.08667306
84	0x3d9650d3	0.07339635
85	0xbc43f9ef	-0.011961444
86	0x3d92b737	0.07163852
87	0xbdaeb31d	-0.08530257
88	0xbcbf9c9f	-0.023390112
89	0xbb90d40d	-0.0044198097
90	0xbd1bd4e0	-0.03804481
91	0x3af35bc3	0.0018566776
92	0x3cb56e3d	0.022147292
93	0xbd97a2a1	-0.07404066
94	0x3cb5ef11	0.022208722
95	0x3da1234d	0.07868061
96	0x3da0b323	0.078466676
97	0xbd88d624	-0.06681469
98	0xbd7d9719	-0.061911676
99	0x3da2184b	0.0791479
100	0x3d816321	0.063177355
101	0x3c0dd991	0.008657829
102	0x3d62c5a2	0.05536426
103	0xbab3b180	-0.0013709515
104	0x3cff4f6c	0.031165801
105	0x3d4011e3	0.046892058
106	0xbd809e0c	-0.06280145
107	0xbd54956f	-0.051900323
108	0xbdae460c	-0.08509454
109	0xbd4c80b4	-0.04992743
110	0x3d8afccd	0.06786499
111	0x3d3de4e6	0.046360873
112	0xbd8a09b5	-0.06740133
113	0xbb785b76	-0.0037896312
114	0xbd49df45	-0.049285192
115	0xbda36af9	-0.07979388
116	0xbd9b4440	-0.07581377
117	0xbda036db	-0.07822963
118	0xbb8187a2	-0.0039529363
119	0xbd54f015	-0.051986773
120	0xbd92b5c4	-0.07163575
121	0x3d9e9035	0.07742349
122	0x3da1c778	0.07899374
123	0xbdbac410	-0.09119427
124	0xbc3b907c	-0.011448022
125	0xbd0b070a	-0.03394226
126	0xb9c637e9	-0.0003780716
127	0x3d1a4f3d	0.037673224
128	0xbd0ec7e8	-0.034858614
129	0x3d02608d	0.03183036
130	0xbd0acd7a	-0.033887364
131	0x3d878425	0.066170014
132	0x3ce5d710	0.028056651
133	0xbb729ee0	-0.0037020966
134	0xbd244b30	-0.040110767
135	0xbd62088e	-0.05518394
136	0xbc57fd4b	-0.013182948
137	0xbd107ad3	-0.035273384
138	0xbd143144	-0.036179796
139	0xbd2098f0	-0.039208353
140	0x3b90b4d0	0.004416086
141	0xbdab77cc	-0.08372459
142	0x3cda5c13	0.026655233
143	0x3d3b611d	0.04574691
144	0x3dac7767	0.08421212
145	0xbd3d4155	-0.046204884
146	0x3cc3d161	0.02390355
147	0xbd830eed	-0.06399331
148	0x3d5666eb	0.052344244
149	0x3d6b5126	0.057450436
150	0x3da10e7f	0.07864093
151	0xbd7a433b	-0.061099272
152	0xbdb7179c	-0.0894005
153	0xbd7bb47e	-0.061451428
154	0x3d756eb7	0.05992004
155	0xbd736671	-0.059423868
156	0xbbda3921	-0.0066596423
157	0x3d4b9753	0.04970486
158	0xbb52c6d7	-0.0032161975
159	0x3b78d6a9	0.0037969744
160	0x3d5363a1	0.051608685
161	0xbd6f705b	-0.05845676
162	0x3cedd420	0.029031813
163	0x3c4701d0	0.012146428
164	0x3ceb1b47	0.02869953
165	0x3a9818c0	0.0011604056
166	0xbc809fcc	-0.015701197
167	0xbbdfe4f0	-0.0068327114
168	0x3d6cb452	0.057789154
169	0xbd02e342	-0.03195501
170	0xbd66f3ee	-0.056384973
171	0xbd9edd88	-0.077570975
172	0x3d340e8c	0.043959185
173	0xbd7ebb9b	-0.062190633
174	0xbd291e6e	-0.041288786
175	0x3cf50d40	0.029913545
176	0xbd9a7803	-0.07542422
177	0xbd83c24a	-0.06433542
178	0xbd9be48c	-0.07611951
179	0x3c4e82aa	0.012604395
180	0x3da6b7b4	0.08140507
181	0xbbf0b856	-0.0073461933
182	0xbda5275f	-0.0806415
183	0xbd90fd45	-0.07079557
184	0x3bc176bc	0.005904047
185	0x3c617e64	0.013763044
186	0x3c1aa324	0.00943831
187	0xbdad7875	-0.08470241
188	0x3ce58b97	0.028020663
189	0xbc8e9575	-0.017405251
190	0x3d9dea3e	0.07710694
191	0x3d60eb99	0.054912183
192	0x3da8d410	0.08243573
193	0x3ca4d0f7	0.020119173
194	0xbd367c88	-0.044552356
195	0x3d943664	0.07236937
196	0x3d838f9a	0.06423874
197	0x3d52bb39	0.05144808
198	0xbd3d6879	-0.04624221
199	0x3d716660	0.058935523
200	0xbd266c49	-0.040630613
201	0x3c470294	0.012146611
202	0x3c1d2b6c	0.009592872
203	0xbdab9e21	-0.0837977
204	0xbd47c319	-0.048770044
205	0xbd4c0a44	-0.049814478
206	0xbc6402e3	-0.013916704
207	0xbcfb6b97	-0.030690951
208	0x3d84918b	0.064730726
209	0xbc1b773a	-0.009488875
210	0x3d0c060b	0.03418545
211	0xbc2cbc48	-0.010542937
212	0x3dac2a47	0.08406501
213	0xbd857774	-0.065169245
214	0x3d687fb2	0.056762405
215	0x3cff39ed	0.03115555
216	0x3da6cce5	0.08144549
217	0xbd847185	-0.06466965
218	0x3d517cfc	0.051144585
219	0xbb872af7	-0.004124995
220	0xbdae0466	-0.08496933
221	0x3cf8a31f	0.03035122
222	0xbcc81e03	-0.024428373
223	0xbccfe951	-0.025379809
224	0x3d6bd1c4	0.057573095
225	0x3cd08980	0.02545619
226	0xbd55ef60	-0.05223024
227	0x3d9bc4c7	0.07605892
228	0xbdbaa213	-0.091129445
229	0x39a80cae	0.00032052904
230	0xbdb00908	-0.085954726
231	0x3dd02999	0.10164184
232	0xbc1e1508	-0.009648569
233	0x3d7da147	0.061921384
234	0xbda87fd1	-0.08227504
235	0xbcf8c948	-0.030369416
236	0xbd394d06	-0.04523947
237	0x3c2c9366	0.010533189
238	0x3da97907	0.08275037
239	0xbdbad7b1	-0.09123171
240	0x3d767b2f	0.06017607
241	0xbd8c3310	-0.06845677
242	0x3d378ae3	0.044810187
243	0xbd996635	-0.074901976
244	0x3bcb89fc	0.0062115174
245	0xbd3e9b75	-0.046534974
246	0xbd378bc0	-0.04481101
247	0xbd804e6e	-0.06264959
248	0x3cc4b22d	0.024010742
249	0xbd2e9336	-0.04262086
250	0xbd48f022	-0.049057133
251	0xbc5d9823	-0.013525042
252	0x3bdafedf	0.006683215
253	0xbdb8b032	-0.090179816
254	0x3d7ea121	0.062165383
255	0xbd74ed9c	-0.059796914

network.0.bias f4 [256]
0	0x3d6e7cd2	0.058224507
1	0xbd8e2804	-0.06941226
2	0xbdae7a11	-0.08519376
3	0xbd23c1e8	-0.039979845
4	0x3d092258	0.03348002
5	0x3c0022e7	0.007820821
6	0xbcaa0758	-0.020755455
7	0x3d55cf8a	0.052199878
8	0x3b9fcc50	0.004876651
9	0x3d8d1165	0.06888083
10	0xbc26fcd9	-0.0101921195
11	0xbda4ae78	-0.0804109
12	0x3d0b8a29	0.034067307
13	0xbcb2f170	-0.021843642
14	0xbd8afb63	-0.067862295
15	0xbc696e80	-0.014247537
16	0xbcd99f4b	-0.026565215
17	0x3ce78269	0.028260427
18	0xbd8be247	-0.06830268
19	0xbd27d01a	-0.040969945
20	0x3d2b670f	0.04184633
21	0x37a5e000	1.977384e-05
22	0xbc606992	-0.013697045
23	0xbcc7df8b	-0.024398586
24	0xbd8a5a5f	-0.06755518
25	0xbdc245c2	-0.094859615
26	0x3c3bef59	0.011470639
27	0xbda35d9d	-0.0797684
28	0xbda9912f	-0.08279645
29	0x3d9f151f	0.077677004
30	0xbd16da48	-0.036829263
31	0x3c221369	0.009892323
32	0x3d770763	0.06030978
33	0x3d2f81e7	0.042848494
34	0xbdd93879	-0.106064744
35	0x3db4d00d	0.08828745
36	0xbdb8747a	-0.09006591
37	0x3d339ef1	0.04385275
38	0x3d89659e	0.06708835
39	0x3ca036c0	0.019557357
40	0x3bab4415	0.005226622
41	0x3d0b3450	0.033985436
42	0x3d1539ca	0.036432065
43	0xbcd4e591	-0.025988372
44	0xbdaf3d51	-0.08556617
45	0xbcdb49dd	-0.02676862
46	0xbd847239	-0.06467099
47	0x3c6de26b	0.014519314
48	0x3d9d1ad7	0.07671135
49	0x3d1a61ef	0.037691053
50	0xbdc5eda4	-0.09664467
51	0xbda95d92	-0.082698
52	0x3d323247	0.04350498
53	0x3d88359d	0.06650851
54	0xbbcb1b70	-0.006198339
55	0xbd89e2c1	-0.06732703
56	0x3d182d35	0.037152488
57	0x3cb262be	0.0217756
58	0xbca090e0	-0.019600332
59	0x3d6602a2	0.056154855
60	0xbd7ede5f	-0.06222379
61	0xbd97b550	-0.074076295
62	0x3d968dad	0.07351241
63	0xbdbb0393	-0.09131541
64	0xbc1d36f9	-0.009595626
65	0x3bcdb0cf	0.0062771807
66	0xbdac1332	-0.08402099
67	0x3be74a25	0.0070583993
68	0x3cb5fef4	0.022216298
69	0xbd1fa5c7	-0.038976457
70	0x3cb4ceda	0.02207129
71	0x3d27e283	0.040987503
72	0xbc4b3185	-0.012401943
73	0x3d949200	0.0725441
74	0xbdaf4dd3	-0.08559766
75	0x3c381697	0.011235855
76	0x3b69ffa0	0.0035705343
77	0x3da1ec34	0.0790638
78	0xbd06ce22	-0.032911427
79	0x3d68589a	0.056725122
80	0xbdbb8c94	-0.091576725
81	0xbd5640c0	-0.052307844
82	0xbdcf99a0	-0.101367235
83	0x3c9fb22c	0.019494139
84	0xbcf52269	-0.029923635
85	0x3d9dbad9	0.07701654
86	0xbb287609	-0.002570512
87	0x3c53b265	0.012920951
88	0x3d4114e7	0.047139075
89	0xbdc3a412	-0.09552778
90	0x3bccfe85	0.006255927
91	0xbd49205c	-0.049103126
92	0xbd0a7128	-0.03379932
93	0x3d5ea18c	0.05435328
94	0x3bce6b24	0.0062993933
95	0xbd7182b2	-0.05896253
96	0xbd2587bf	-0.04041266
97	0xbbff4f17	-0.0077914107
98	0xbd943056	-0.07235782
99	0xbc74dc7c	-0.014945146
100	0xbd6becee	-0.057599
101	0x3d80baf8	0.062856615
102	0xbbac98ed	-0.0052672536
103	0x3d2664c7	0.040623453
104	0xbd1a54fb	-0.0376787
105	0xbcf28f99	-0.029609488
106	0xbc595c51	-0.013266639
107	0x3d0bd6f4	0.034140542
108	0x3d92ab69	0.071616
109	0x3cec0e00	0.02881527
110	0x3d7d797e	0.061883442
111	0xbdb8622b	-0.09003099
112	0x3d382ce7	0.044964697
113	0x3b9c9013	0.004777917
114	0xbd5aa6b1	-0.053381626
115	0x3be62460	0.007023379
116	0xbc9c0750	-0.019046456
117	0xbd757d87	-0.059934165
118	0xbd672a9e	-0.056437127
119	0xbd237d76	-0.03991457
120	0xbc6a1e63	-0.014289471
121	0xbca963a2	-0.020677391
122	0x3c463c4e	0.012099339
123	0x3ca94d60	0.020666778
124	0xbc5ccf71	-0.013477192
125	0xbda59d08	-0.08086592
126	0x3c9e6c4c	0.01933875
127	0xbd988d59	-0.07448835
128	0xbd925c54	-0.071465164
129	0x3d0676ce	0.032828145
130	0x3d1e61a3	0.038667332
131	0xbd373ca0	-0.04473555
132	0xbd839790	-0.06425393
133	0x3c7280e1	0.014801235
134	0x3d1e7446	0.038685106
135	0x3d13796d	0.036004473
136	0xbd93a711	-0.072096
137	0x3bceab6a	0.0063070552
138	0x3d79e2bc	0.061007246
139	0xbdbcfa51	-0.092274316
140	0x3d5df28c	0.05418639
141	0xbcf50a5c	-0.029912166
142	0xba7962e3	-0.00095133315
143	0xbce8afd2	-0.02840415
144	0xbda97257	-0.08273762
145	0xbcfa5d62	-0.030562107
146	0x3d875292	0.06607546
147	0xbd148702	-0.036261566
148	0x3d5ba229	0.053621445
149	0x3d333c38	0.0437586
150	0xbc7583d0	-0.01498504
151	0x3d0d2522	0.03445924
152	0xbd0ac166	-0.033875845
153	0xbd8661f3	-0.06561651
154	0xbc902ec4	-0.017600425
155	0x3d858482	0.065194145
156	0xbaae1680	-0.0013281852
157	0x3d9b5dd9	0.075862594
158	0x3c4c359b	0.012463952
159	0xbd464220	-0.048402905
160	0xbd3bd7be	-0.045860045
161	0xbcb5df61	-0.022201242
162	0x3d021b2e	0.0317642
163	0xbd6129c9	-0.05497149
164	0x3d287666	0.04112854
165	0x3d7d06ce	0.061774068
166	0x3d9e9813	0.077438496
167	0x3d240aa2	0.040049203
168	0xbb97e0da	-0.0046349587
169	0x3c306c4f	0.01076801
170	0xbda7c7dc	-0.08192417
171	0x3d8010ea	0.06253226
172	0x3da2ea00	0.07954788
173	0xbd35ec6d	-0.044414926
174	0x3d65c599	0.056096647
175	0xbd3c9b35	-0.046046454
176	0x3c4529d1	0.012033896
177	0x3c18cf23	0.009326729
178	0x3d379208	0.044817
179	0x3d2c14d0	0.042012036
180	0xbdaf75df	-0.08567404
181	0xbd159d61	-0.03652704
182	0x3d8135b5	0.06309072
183	0xbd8b460d	-0.068004705
184	0x3cd74064	0.026275821
185	0x3d11a60d	0.03555875
186	0xbd5e07aa	-0.054206528
187	0x3c956273	0.01823542
188	0x3cf2a739	0.029620754
189	0xbcc73f9e	-0.024322327
190	0x3beab544	0.007162722
191	0xbcd93fbe	-0.026519652
192	0xbd81f661	-0.06345821
193	0x3d9e96f4	0.07743636
194	0x3cd1379c	0.025539212
195	0x3c8af674	0.016963221
196	0x3d82f752	0.06394829
197	0x3d91d804	0.0712128
198	0x3c9d28e2	0.019184534
199	0x3c3c5021	0.011493714
200	0xbdb11014	-0.08645645
201	0xbd729eb9	-0.0592334
202	0x3d7f70c7	0.062363412
203	0x3d5c6056	0.05380281
204	0xbc308736	-0.010774424
205	0x3da84617	0.082164936
206	0xbdc26185	-0.094912566
207	0xbb88e210	-0.0041773394
208	0xbda149be	-0.07875393
209	0x3d113839	0.03545401
210	0xbd221783	-0.039573204
211	0x3d1e00a2	0.038574822
212	0x3d9cbbd5	0.076530136
213	0xbd284a59	-0.04108653
214	0xbd1220f0	-0.035675943
215	0xbc5226e3	-0.012826654
216	0xbd9a8bc0	-0.075461864
217	0x3d77ff2a	0.060546078
218	0xbb53ed78	-0.0032337587
219	0x3d0b209a	0.03396664
220	0xbd6cb07c	-0.057785496
221	0x3d83441b	0.064094745
222	0x3d88bc83	0.06676581
223	0x3d73cd85	0.05952217
224	0x3d16c196	0.03680571
225	0x3d8b36fb	0.06797596
226	0xbdd437db	-0.10362216
227	0x3d86597d	0.06560037
228	0x3cfb47f7	0.030673964
229	0xbcc968f0	-0.02458617
230	0x3d945849	0.072434016
231	0x3d814d09	0.063135214
232	0xbbd373bf	-0.006453007
233	0x3d596fa2	0.053084977
234	0xbd9c5e32	-0.07635154
235	0x3ca324e4	0.019915052
236	0xbd5d7246	-0.054064058
237	0xbcfd3479	-0.03090881
238	0xbd3a1bae	-0.045436554
239	0xbd20a0a3	-0.039215695
240	0xbd83089a	-0.06398125
241	0xbdb800b0	-0.08984506
242	0x3d1145b2	0.035466857
243	0xbda9969b	-0.08280679
244	0x3d98fe49	0.07470376
245	0xbd8d4626	-0.068981454
246	0x3c4a6439	0.0123529965
247	0x3d847d79	0.064692445
248	0xbd649e8c	-0.055815265
249	0x3c9dce40	0.019263387
250	0xbd24e349	-0.04025582
251	0x3a506876	0.0007950136
252	0x3d7d46e6	0.061835192
253	0x3c0d20e8	0.0086138025
254	0xbdb386a7	-0.08765917
255	0x3d3ea2a0	0.04654181

network.2.weight f4 [256, 256]
0	0x3d6cbf62	0.057799704
1	0xbca1300c	-0.01967623
2	0xbccab45d	-0.024744207
3	0x3bd92683	0.0066269054
4	0xbd639566	-0.0555624
5	0xbbf6c83a	-0.007531193
6	0xbd28246d	-0.041050363
7	0xbd00ac62	-0.031414397
8	0xbd3dcf6d	-0.046340395
9	0xbbfff4b1	-0.007811152
10	0xbd30d73e	-0.04317402
11	0xba926be8	-0.0011171075
12	0x3d4c06a1	0.04981101
13	0xbc66983d	-0.014074382
14	0x3d1cacf5	0.038250882
15	0xbd3a815a	-0.045533516
16	0xbce21d10	-0.027601749
17	0xbc9c42af	-0.019074766
18	0xbd191599	-0.037374113
19	0x3c89dc8f	0.016828803
20	0x3ba3b541	0.0049959724
21	0x3c07eb90	0.008295909
22	0xbd1ff6c3	-0.03905369
23	0xbbdfa0e1	-0.006824598
24	0xbc560840	-0.01306349
25	0x3a04d703	0.00050674396
26	0xbcce51e1	-0.025185527
27	0x3d63c3d8	0.055606693
28	0xb82fb800	-4.1894615e-05
29	0x3c30e119	0.010795855
30	0x3d1dee2f	0.038557228
31	0x3d3b1ad6	0.04567989
32	0x3d0477d8	0.032340854
33	0xbcda407f	-0.026642082
34	0x3d030ec3	0.0319965
35	0xbce036a0	-0.027369797
36	0x3c983d2a	0.018583853
37	0x3c25016a	0.010071138
38	0xbcdac814	-0.026706733
39	0xbd4a7204	-0.04942514
40	0x3d02c32a	0.031924404
41	0x3d2b1a71	0.041773263
42	0xbd4f973b	-0.050681334
43	0x3d2df91e	0.042473905
44	0x3cf2f671	0.029658528
45	0xbd719d0a	-0.058987655
46	0xbd317189	-0.043321166
47	0xbca29482	-0.019846205
48	0x3d6e53f0	0.058185518
49	0x3d0ed526	0.034871243
50	0xbd57dc70	-0.05270046
51	0xbd2a4b3f	-0.041575667
52	0xbd9294c1	-0.07157279
53	0xbd766984	-0.06015922
54	0xbd4b06a6	-0.049566887
55	0xbd812ed1	-0.06307758
56	0xbd75a6fd	-0.059973706
57	0xbd0ae0e2	-0.03390587
58	0x3c8fdc6c	0.01756116
59	0x3cdb941c	0.026804022
60	0x3ccf7ad4	0.025327124
61	0xbb019449	-0.0019772223
62	0xbc645548	-0.013936348
63	0x3cf893b9	0.030343877
64	0x3d32bbdc	0.043636188
65	0xbcb8040a	-0.022462863
66	0x3cc46f72	0.023978923
67	0xbcbcfcf2	-0.023069832
68	0x3cf5b141	0.029991748
69	0xbd089541	-0.033345465
70	0xbd00d150	-0.031449616
71	0xbcb5b60c	-0.022181533
72	0xbccb86e8	-0.024844602
73	0x3cada5c9	0.021197217
74	0x3d70ffc6	0.058837675
75	0xbd67ce87	-0.056593444
76	0x3ca4ec40	0.020132184
77	0x3c404362	0.011734815
78	0xbcac4b8c	-0.021032117
79	0xbc7a1688	-0.015264161
80	0xbc6e1a87	-0.014532692
81	0xbcbfbf23	-0.02340657
82	0x3b8d7aa1	0.004317597
83	0x3d716312	0.05893237
84	0xbcf5b27f	-0.02999234
85	0x3ca2226c	0.019791804
86	0xbd5f1836	-0.05446645
87	0xbcb92330	-0.022599787
88	0x3d4203bf	0.047366854
89	0xbd4778af	-0.048699077
90	0x3ce1961a	0.027537394
91	0x3d114638	0.035467356
92	0x3bd93164	0.0066282023
93	0x3d3c3f43	0.04595877
94	0x3d141e8e	0.03616195
95	0x3d72779f	0.05919611
96	0xbd1debde	-0.03855502
97	0x3d684a71	0.056711618
98	0x3d6badb8	0.057538718
99	0x3d1eb27d	0.03874444
100	0x3cce0a54	0.02515141
101	0x3d1eae0b	0.0387402
102	0xbbde9670	-0.006792836
103	0xbcbaca0b	-0.02280142
104	0xbc84c7bc	-0.016208522
105	0xbc6d15f9	-0.014470571
106	0xbbd3355e	-0.006445571
107	0x3ce155ac	0.027506672
108	0x3d664e16	0.056226812
109	0x3cd2af7c	0.025718443
110	0x3cf56aef	0.029958216
111	0x3d767645	0.060171384
112	0xbc021c18	-0.007941268
113	0xbdac4a4d	-0.08412609
114	0xbd60b956	-0.05486425
115	0xbd08f8be	-0.033440344
116	0xbc7b0a78	-0.01532232
117	0xbc81fe3c	-0.015868299
118	0xbb9312c9	-0.0044883233
119	0x3d2353dc	0.039874896
120	0xbd3ef9a2	-0.046624787
121	0x3d5080b7	0.050904002
122	0xbd1895e5	-0.037252326
123	0x3d44dac4	0.048060194
124	0xbd453196	-0.048142992
125	0x3d3e1e7e	0.0464158
126	0x3cb0f36d	0.02160045
127	0xbb838e90	-0.0040147975
128	0x3b7fe240	0.0039044768
129	0x3c072dd7	0.008250675
130	0xbc66ac4b	-0.014079164
131	0xbd22a858	-0.039711326
132	0x3ce8b1f9	0.028405176
133	0xbd7a1ce1	-0.061062697
134	0x3d4b8964	0.049691573
135	0xbce33785	-0.027736435
136	0xbd2fcaa9	-0.04291788
137	0x3d1a1628	0.037618786
138	0xbc77e805	-0.015131001
139	0x3d5c8a34	0.05384274
140	0x3cb247de	0.021762785
141	0xbd1e4c3e	-0.03864693
142	0xbb151ff1	-0.0022754634
143	0xbd25a8cc	-0.04044418
144	0xbd7e6c2f	-0.06211489
145	0xbd6245be	-0.055242293
146	0xbd34595e	-0.04403054
147	0xbc6dd5ea	-0.014516333
148	0x3ca6d17e	0.020363566
149	0x3d240972	0.04004807
150	0xbcd338e3	-0.025783962
151	0x3d045e68	0.032316595
152	0xbd4f4a62	-0.050608046
153	0xbd0df6e4	-0.03465928
154	0x3d6be589	0.05759195
155	0xbd3d5332	-0.04622192
156	0x3d7b4a4a	0.061350144
157	0x3cd51667	0.026011659
158	0x3c2d145d	0.010563937
159	0xbd27fd84	-0.041013256
160	0xbbc9febe	-0.006164401
161	0xbd026e68	-0.031843573
162	0x399c588e	0.00029820617
163	0x3c80ff81	0.015746834
164	0xbd0020e2	-0.03128136
165	0xbd5cb7be	-0.053886168
166	0xbd81c776	-0.06336872
167	0x3ca6b9da	0.020352293
168	0x3d39efd8	0.04539475
169	0x3c102122	0.008796962
170	0xbc2e1121	-0.010624201
171	0xbd7624ff	-0.060093876
172	0xbcff9643	-0.03119958
173	0xbd07c6ac	-0.033148453
174	0xbd2e6948	-0.042580873
175	0xbcb74d28	-0.022375658
176	0xbd1910b7	-0.037369456
177	0xbcced9d9	-0.025250362
178	0x3bbea938	0.0058185123
179	0xbd2a7509	-0.04161552
180	0x3c2c180a	0.010503778
181	0xbd6d68bc	-0.05796121
182	0xbd5fa17d	-0.054597367
183	0x3b84e1b7	0.0040552276
184	0x3d3f5f6a	0.046721853
185	0xbd7c9da0	-0.06167376
186	0xbd1b0c0a	-0.03785328
187	0x3d7aa2e5	0.061190505
188	0xbd57a1a1	-0.052644376
189	0xbbc98a93	-0.0061505525
190	0xbd25cb12	-0.040476866
191	0x3d2f94cd	0.042866517
192	0x3c9c5f51	0.01908842
193	0x3cefadb9	0.029257642
194	0x3cf2e438	0.029649839
195	0xbcb79c00	-0.022413254
196	0xbd7e75de	-0.062124126
197	0xbc2970aa	-0.010341803
198	0xbc4be47f	-0.012444614
199	0x3d0f3077	0.03495833
200	0x3d76259e	0.06009447
201	0xbc46b53e	-0.012128172
202	0xbcdbcb9e	-0.02683049
203	0x3d2398c4	0.03994061
204	0xbd300909	-0.042977367
205	0x3d5325a2	0.05154956
206	0xbb45dd10	-0.0030191578
207	0x3cf89f00	0.030349255
208	0xbc4a2bd0	-0.012339547
209	0xbc346db1	-0.011012481
210	0x3d5344a6	0.05157914
211	0xbb9aff80	-0.004730165
212	0xbce42af0	-0.027852505
213	0xbd62966a	-0.055319227
214	0x3d7245fc	0.059148774
215	0xbd4fba04	-0.050714508
216	0x3d47151c	0.048604116
217	0xbb8a5c30	-0.0042224154
218	0x3c856fc0	0.016288638
219	0xbb76f4ae	-0.0037682462
220	0xbc2c5d50	-0.010520294
221	0xbabf4c2f	-0.0014594848
222	0xbb222cdf	-0.0024745984
223	0xbb96839b	-0.0045933253
224	0xbd1488b8	-0.036263198
225	0x3cb757c4	0.022380717
226	0xbcab92c2	-0.020944003
227	0xbc171730	-0.009221837
228	0xba218c71	-0.000616259
229	0xbd817e2c	-0.063228935
230	0x3cff1f48	0.031142846
231	0xbd1994ee	-0.037495546
232	0x3cd904cd	0.026491547
233	0x3d40cb39	0.04706881
234	0x3d397174	0.045274213
235	0xbcc83f48	-0.024444237
236	0x3d21ef20	0.039534688
237	0x3d24fb07	0.04027846
238	0x3cfd7acb	0.030942341
239	0xbc9cb54b	-0.019129416
240	0xbaaf5c29	-0.0013378906
241	0xbd3144f1	-0.04327864
242	0xbc1be7f9	-0.009515756
243	0xbd124eac	-0.03571956
244	0xbc8f9403	-0.017526632
245	0xbd7da9e0	-0.061929584
246	0xbd751997	-0.059838858
247	0x3c9365d6	0.017992895
248	0xbd748877	-0.059700456
249	0x3d0a334e	0.033740334
250	0xbc7590c3	-0.014988127
251	0xbcb6bfd8	-0.022308275
252	0xbc0982c8	-0.008392997
253	0x3d52655c	0.051366195
254	0xbd53347c	-0.051563725
255	0xbba9320f	-0.005163438

network.2.bias f4 [256]
0	0xbd57d5e8	-0.05269423
1	0xbd982431	-0.07428778
2	0xbdc45dc7	-0.09588199
3	0xbab8193a	-0.0014045604
4	0xbdde3a62	-0.108509794
5	0x3cae6620	0.021288931
6	0xbdbab143	-0.09115841
7	0x3d9145ff	0.07093429
8	0xbe376376	-0.17909035
9	0x3ac89bc1	0.0015305207
10	0xbd14d7a6	-0.03633847
11	0x3e433f44	0.19067103
12	0x3d54dbf4	0.051967576
13	0xbdc0a4a6	-0.09406404
14	0xbdc74d34	-0.09731522
15	0x3c0c619e	0.008568196
16	0xbe0fd3f6	-0.140457
17	0x3e1eae12	0.1549609
18	0xbedf5fc0	-0.4362774
19	0xbe237eda	-0.15966359
20	0xbbe1781c	-0.006880773
21	0xbcaaa5cb	-0.02083101
22	0xbeb1273b	-0.34600243
23	0xbd2ca903	-0.04215337
24	0xbdb77e4a	-0.089596346
25	0xbdc95a5b	-0.09831687
26	0xbd4877d4	-0.048942402
27	0xbeba785c	-0.36419952
28	0xbe0c3287	-0.1369115
29	0xbd26f40d	-0.04076009
30	0x3c53d069	0.012928107
31	0x3b93aa4b	0.0045063845
32	0x3de5d091	0.112214215
33	0xbdc45424	-0.09586361
34	0x3e200220	0.1562581
35	0xbdfc2af7	-0.123128824
36	0xbcb628eb	-0.022236308
37	0xbdf7e9a5	-0.12105111
38	0x3d1401b4	0.036134437
39	0xbe0a98a1	-0.13534786
40	0xbde07138	-0.10959095
41	0x3c454ce6	0.01204226
42	0x3d64bd4a	0.055844583
43	0x3eccb1e1	0.3997946
44	0x3a95c25b	0.001142572
45	0xbddbafcc	-0.1072689
46	0x3d519956	0.051171623
47	0xbdbbf2a6	-0.09177141
48	0xbcd173d1	-0.02556792
49	0xbdc5316a	-0.096285656
50	0xbdc6b769	-0.097029515
51	0xbd0d3edb	-0.03448377
52	0xbda172f5	-0.078832544
53	0xbd3d9e89	-0.04629377
54	0xbbec0405	-0.0072026276
55	0xbe0e66c9	-0.13906397
56	0xbe2be75b	-0.16787474
57	0x3dbfa26b	0.09357151
58	0x3c8268bc	0.015919082
59	0x3e1eeae1	0.15519287
60	0xbcf4a89b	-0.029865554
61	0xbca2b13d	-0.019859904
62	0x3d48c96b	0.049020212
63	0xbe04dd70	-0.12975097
64	0x3d44d935	0.048058707
65	0xbeb2f69a	-0.34953767
66	0xbcac4e1f	-0.021033345
67	0xbd3834f4	-0.044972375
68	0xbdb747ab	-0.089492165
69	0xbd07c7b3	-0.033149432
70	0xbd21e7e8	-0.039527804
71	0x3d821839	0.06352276
72	0xbd87166d	-0.06596074
73	0x3e9996b8	0.29997802
74	0xbe1ca142	-0.1529589
75	0xbe8eb265	-0.2787048
76	0xbd07e3de	-0.033176295
77	0xbd8f57c7	-0.06999164
78	0xbe88e0f7	-0.26734135
79	0x3e5ca945	0.21548946
80	0xbdbadbf0	-0.09123981
81	0xbce7d7ea	-0.028301198
82	0xbdab5e11	-0.08367551
83	0x3dc10eed	0.09426675
84	0xbc68ddba	-0.01421302
85	0xbe0780ef	-0.13232778
86	0x3d89319f	0.066989176
87	0xbdd40759	-0.10352964
88	0xbdd4c139	-0.10388417
89	0xbe602d43	-0.21892266
90	0x3d7b4f87	0.06135514
91	0xbdcf9229	-0.101353
92	0xbbe37dde	-0.006942495
93	0xbe5324e8	-0.20619547
94	0xbd3b9dd2	-0.045804806
95	0xbd28436e	-0.04107993
96	0xbc954e1d	-0.018225724
97	0x3db827d9	0.08991975
98	0xbd9b345d	-0.07578347
99	0x3d8c13cb	0.06839713
100	0xbd4a6126	-0.049409054
101	0xbe1e372a	-0.15450731
102	0xbdf86a12	-0.12129606
103	0xbcc45327	-0.023965431
104	0x3cf79816	0.030223887
105	0xbe8b6317	-0.27224037
106	0xbe4ad579	-0.19807996
107	0xbe024be4	-0.12724262
108	0x3ca8f200	0.020623207
109	0x3e13b179	0.14423169
110	0xbd08e3cb	-0.033420365
111	0xbdea845f	-0.11451029
112	0xbde18c6e	-0.11013113
113	0xbe7babd9	-0.24577273
114	0xbdd077f8	-0.10179132
115	0xbd3883a9	-0.045047436
116	0xbd823579	-0.06357855
117	0xbb5aca36	-0.0033384687
118	0xbc8266cc	-0.015918158
119	0xbd57ff48	-0.05273369
120	0x3b98d8e3	0.004664527
121	0xbeb82510	-0.35965776
122	0xbe13b659	-0.14425029
123	0xbd407c13	-0.046993326
124	0xbe451a8c	-0.19248408
125	0xbeaf16b7	-0.34197018
126	0xbdcf9edc	-0.10137722
127	0xbe1eacf8	-0.1549567
128	0xbd848b64	-0.06471899
129	0xbdb385c8	-0.08765751
130	0xbd9447ff	-0.07240295
131	0xbd5b3c31	-0.0535242
132	0x3ed39fc0	0.41332817
133	0xbd1e117d	-0.038590897
134	0xbd936f96	-0.07199018
135	0xbdd9272c	-0.106031746
136	0xbe4b31b7	-0.19843183
137	0xbcf1677b	-0.029468289
138	0xbdd9f055	-0.10641543
139	0xbce7bd3c	-0.028288476
140	0xbce38029	-0.027771072
141	0xbd99d6a1	-0.0751164
142	0xbc0f9674	-0.008763898
143	0xbcf5934b	-0.029977461
144	0xbdb70e31	-0.08938254
145	0xbeb8bd6f	-0.36082026
146	0xbd9b35e1	-0.07578636
147	0xbe95a840	-0.29229927
148	0x3c1ebbfe	0.0096883755
149	0xbc710749	-0.01471121
150	0x3ddd27ee	0.107986316
151	0xbd25c315	-0.040469248
152	0xbd82df92	-0.06390299
153	0x3e293862	0.16525415
154	0x3ea8d829	0.32977417
155	0xbdd9035e	-0.10596345
156	0xbd8f7088	-0.070038855
157	0xbc04ba7f	-0.008101105
158	0xbd7b7945	-0.06139495
159	0xbd2f7f1c	-0.04284583
160	0xbdc8c2e0	-0.098027945
161	0x3d6dd62a	0.05806557
162	0xbe24d0fb	-0.16095345
163	0x3e77475f	0.2414832
164	0xbe0174ba	-0.12642184
165	0x3b803d84	0.0039135832
166	0xbd44ed8b	-0.0480781
167	0x3d193329	0.037402306
168	0xbe8d5205	-0.27601638
169	0xbc58530f	-0.013203396
170	0xbe0a6a7f	-0.13517188
171	0x3aeca947	0.001805582
172	0x3dc24704	0.094862014
173	0x3e045ee0	0.12926817
174	0xbe0c16d5	-0.13680585
175	0xbde8144b	-0.113319956
176	0xbd47dc04	-0.048793808
177	0x3e440242	0.19141486
178	0x3ce381aa	0.02777179
179	0xbd29a791	-0.04141957
180	0xbd96be0d	-0.07360468
181	0xbdd48d9d	-0.10378573
182	0xbd2b8c68	-0.04188195
183	0xbda53375	-0.08066455
184	0xbe23ad5e	-0.15984103
185	0xbd268e74	-0.040663198
186	0xbeba400e	-0.36376995
187	0xbd864f46	-0.06558089
188	0xbd99bfc4	-0.075072795
189	0xbdf04130	-0.117311835
190	0xba9cfd5f	-0.0011977366
191	0xbdcafa28	-0.09910995
192	0xbb386a36	-0.0028139479
193	0xbe08cba9	-0.1335894
194	0x3bdd88b9	0.0067606834
195	0x3d9fb3d0	0.077979684
196	0x3862e273	5.4093496e-05
197	0xbdedba58	-0.11607808
198	0xbe7cf3c0	-0.24702358
199	0x3e487c89	0.19578756
200	0x3eb70377	0.3574483
201	0xbd7b0463	-0.06128348
202	0x3e713e36	0.23558888
203	0x3cfb08fc	0.030643933
204	0xbd4922b8	-0.049105376
205	0xbdd425d1	-0.103587754
206	0xbda2ac77	-0.07943051
207	0xbe038057	-0.12841927
208	0xbd29ed29	-0.04148594
209	0xbd0dcf0e	-0.03462129
210	0xbd8d6a82	-0.069050804
211	0xbd2b3a9f	-0.041803952
212	0x3d6bea44	0.05759646
213	0x3e7e1ff0	0.2481687
214	0xbd65bc01	-0.056087498
215	0xbb0f43e0	-0.0021860525
216	0x3d0fdb6b	0.035121363
217	0xbe285c74	-0.16441518
218	0xbd57ec05	-0.05271532
219	0xbd270c09	-0.040782962
220	0xbd35e08f	-0.04440361
221	0x3cd38828	0.02582176
222	0x3c2fb58e	0.010724438
223	0x3cd35057	0.025795145
224	0x3d392596	0.04520186
225	0xbd0cbaba	-0.034357764
226	0xbd805c6f	-0.0626763
227	0xbca88200	-0.020569801
228	0xbc380cd0	-0.0112335235
229	0xbe2771c1	-0.16351987
230	0xbe190758	-0.14944208
231	0x3e9897ad	0.2980322
232	0xbe891df1	-0.26780656
233	0xbe9699dd	-0.29414263
234	0xbe1d02c6	-0.15333089
235	0xbd8a1e6d	-0.067440845
236	0xbdc11d17	-0.094293766
237	0x3d94549b	0.072427
238	0xbdf7adc7	-0.12093692
239	0xbc9d00f9	-0.019165503
240	0x3d3ba31a	0.045809843
241	0xbe337313	-0.17524366
242	0xbe3c8923	-0.18411689
243	0xbcb87bab	-0.022519907
244	0xbddf3e2f	-0.109005325
245	0xbe30af0d	-0.17254277
246	0xbde6672d	-0.11250148
247	0xbda6fba3	-0.08153465
248	0x3c3249df	0.01088187
249	0xbc95174f	-0.018199591
250	0x3df7643a	0.120796636
251	0x3d786661	0.06064451
252	0xbe0c26be	-0.13686654
253	0xbdee744f	-0.11643278
254	0x3e00ed12	0.12590435
255	0xbe7783cc	-0.2417137

network.4.weight f4 [3, 256]
0	0x3d0c9cfe	0.034329407
1	0x3da19d18	0.078912914
2	0xba461543	-0.0007556269
3	0xbc22a07b	-0.009925957
4	0x3a59b556	0.0008304914
5	0x3c20ed3f	0.009822189
6	0xbb2aa6c1	-0.0026039334
7	0xbb812db1	-0.0039422144
8	0xbd098a43	-0.033579122
9	0x3c4e4d05	0.012591605
10	0xbd6d6f6c	-0.05796759
11	0x3c2acffc	0.010425564
12	0x3b8e9ff7	0.0043525654
13	0xbc893d23	-0.016752785
14	0xbbc98c6d	-0.0061507733
15	0xba022972	-0.0004965282
16	0xbc5753ab	-0.013142507
17	0x3cd921d5	0.02650539
18	0xbcba8233	-0.022767162
19	0xbbccec7a	-0.006253776
20	0x3c483a86	0.012220984
21	0xbcebb4b8	-0.028772697
22	0x3d03b646	0.03215625
23	0x3c043c28	0.008070983
24	0xbb833bd2	-0.004004934
25	0x3b4755ad	0.0030416057
26	0xbcdca5b6	-0.026934486
27	0xbc45b763	-0.012067649
28	0x3c29eb53	0.010371047
29	0x3ca326fb	0.019916048
30	0xbc775128	-0.015095033
31	0xbcbae2a7	-0.022813154
32	0x3d2b1421	0.041767243
33	0x3c4ec1f1	0.012619481
34	0x3cead49b	0.028665831
35	0x3bdb4667	0.006691742
36	0xbaf482c9	-0.00186547
37	0xbb7c96ba	-0.0038541988
38	0x3d55a142	0.05215574
39	0xbd07cfec	-0.033157274
40	0xbcbf28eb	-0.02333494
41	0x3c88a8a1	0.016681971
42	0xbc2ca9ca	-0.010538528
43	0x3c858d80	0.016302824
44	0xbc043487	-0.008069164
45	0xbb8b6220	-0.004253641
46	0xbc86c54d	-0.016451502
47	0x3bcbc8ad	0.006218991
48	0xbba4c9f6	-0.0050289584
49	0x3cdcfeb0	0.026976913
50	0x3c00a95e	0.00785288
51	0x3d0bf21c	0.03416644
52	0x3c0b46b4	0.008500744
53	0x3c8fa1f3	0.017533278
54	0xbd52a571	-0.05142731
55	0xbb5a8d46	-0.0033348366
56	0xbc836944	-0.016041405
57	0x3d15bb1b	0.03655539
58	0xbc9485f9	-0.01813029
59	0xbad697e7	-0.0016372175
60	0xbba9c85a	-0.0051813545
61	0x3bb54563	0.005531953
62	0x3bc04315	0.005867372
63	0x3ce3b30e	0.02779534
64	0x3d813816	0.06309526
65	0x3c8cee4d	0.017203474
66	0x3d14e4c2	0.036350973
67	0xbc044a0b	-0.008074294
68	0x3bbbd319	0.005731952
69	0xbcdb19bb	-0.026745668
70	0x3ba9f65d	0.0051868395
71	0xbd02d105	-0.031937618
72	0x3afc50be	0.0019250137
73	0x3d284b99	0.04108772
74	0xbad5120b	-0.0016255988
75	0xbbfd1da0	-0.007724479
76	0xbae185ae	-0.0017205977
77	0x3c71a9a9	0.014749923
78	0xbbc538da	-0.00601874
79	0xbc896540	-0.016771913
80	0x3cc67c82	0.024229292
81	0xbc852947	-0.016255034
82	0x3bfabb1c	0.0076516997
83	0x3ba733f5	0.0051026293
84	0x3bc47871	0.005995803
85	0x3c86e316	0.016465705
86	0xb92cdbc3	-0.00016485066
87	0xbc9b7d99	-0.018980788
88	0x3b1549d4	0.00227796
89	0xbd2ea55f	-0.04263818
90	0x3d12f23b	0.03587554
91	0x3cd186ca	0.025576968
92	0xbb0f8ceb	-0.0021904062
93	0xbc4a64ad	-0.012353105
94	0x3b0b1bbe	0.0021226252
95	0xbcb9666f	-0.022631852
96	0xbcdcde87	-0.026961578
97	0x3c356b2a	0.011072913
98	0x3d08da3b	0.033411246
99	0xbc8530b7	-0.01625858
100	0xbc103295	-0.008801122
101	0x3ad1ca44	0.0016005714
102	0x3bf6ae2a	0.007528086
103	0xbc1bfd7e	-0.0095208865
104	0x3aa7dfad	0.001280775
105	0x3cee9a15	0.029126206
106	0x3b8b7beb	0.0042567155
107	0xbbaaeed0	-0.005216457
108	0x3c245f4b	0.010032485
109	0x3ca65c4b	0.02030768
110	0xbbd7fb67	-0.006591249
111	0x3a47e247	0.00076249655
112	0xbc48aa50	-0.012247637
113	0xbbff5eba	-0.0077932747
114	0x3d282f8d	0.041060973
115	0xbc381876	-0.011236301
116	0x3acfb613	0.0015847109
117	0x3be8f172	0.0071088606
118	0xbce0d0aa	-0.027443249
119	0xbbb7eb36	-0.005612756
120	0xbbc848b0	-0.0061121807
121	0xbc5f8fd0	-0.013645127
122	0xbd161ed6	-0.0366505
123	0xbc83e26d	-0.01609918
124	0xbc3679e7	-0.011137462
125	0xbc83f7cf	-0.016109375
126	0xbc8bce63	-0.017066186
127	0xbc12af31	-0.008952902
128	0xbbdd7f23	-0.0067595406
129	0xbc8a5116	-0.016884368
130	0xbd00955e	-0.031392448
131	0x3b95ea64	0.0045750607
132	0x3cd81409	0.026376741
133	0xbcb06d6b	-0.02153655
134	0x3c36c017	0.011154196
135	0x3d0c2772	0.034217305
136	0xbb9acd60	-0.0047241896
137	0xbc868fb6	-0.016425949
138	0x3b1f54b7	0.0024311969
139	0xbbd6cdbf	-0.0065552886
140	0x3bc92691	0.0061386307
141	0xbc31fd8e	-0.010863675
142	0x3b2da50f	0.0026496088
143	0xbbeda4e0	-0.0072523206
144	0xbcf02506	-0.02931453
145	0x3cbff9c0	0.02343452
146	0x3dc6ae63	0.097012304
147	0xbcba677f	-0.022754429
148	0x3c5e7076	0.013576617
149	0x3d7f2d4f	0.06229907
150	0x3b526db4	0.0032108845
151	0xbbd13c31	-0.006385349
152	0xbc235657	-0.0099693155
153	0x3c69ccab	0.014269988
154	0xbdea0ec2	-0.11428596
155	0x3c0674a1	0.008206517
156	0x3d83f5f4	0.06443396
157	0xba4aef6c	-0.0007741365
158	0x3b218509	0.0024645946
159	0xbd88ad32	-0.066736594
160	0xb88ad0ac	-6.619221e-05
161	0x3c94ad8c	0.01814916
162	0xba1ef506	-0.0006063733
163	0xbdfb022c	-0.122562736
164	0xbc361657	-0.011113725
165	0xbc039df7	-0.008033267
166	0xbb97e6a0	-0.004635647
167	0xbc064443	-0.008194986
168	0xbba1bdc9	-0.004935954
169	0xbd1e5440	-0.038654566
170	0xbbbc5fe6	-0.0057487367
171	0x3c904a63	0.017613595
172	0x3b6e60bb	0.0036373574
173	0x3ca57950	0.020199448
174	0x3c99b1b7	0.018761499
175	0xbb5476f5	-0.0032419537
176	0xba69b3c2	-0.00089150306
177	0x3d17cca6	0.037060402
178	0x3c1a84f5	0.0094311135
179	0xbc2a83be	-0.010407386
180	0x3c1238e4	0.008924697
181	0xbcd4f071	-0.025993558
182	0xbc12f9af	-0.008970662
183	0xbbe9be5b	-0.007133288
184	0x3d2b218d	0.041780043
185	0xbb437bdf	-0.0029828472
186	0xbce5b207	-0.028038992
187	0xbb074f09	-0.0020646474
188	0x3c7644b6	0.01503103
189	0x3c1f18f7	0.009710542
190	0x3ad58e95	0.0016293103
191	0xbc6945c7	-0.014237828
192	0xbc3fbb89	-0.011702427
193	0xbc60d33a	-0.013722235
194	0x3c2a1ed4	0.010383327
195	0x3ca81996	0.020520013
196	0xbc471252	-0.012150364
197	0x3cabba43	0.02096284
198	0xbdc4c51b	-0.096079074
199	0x3c55eb01	0.013056518
200	0x3cb0e0d3	0.02159158
201	0x3c4db9c8	0.012556501
202	0xbd18c17d	-0.0372939
203	0xbb09b45e	-0.0021012048
204	0x3ca87dde	0.02056783
205	0xbc189a85	-0.009314184
206	0x3af9bbc3	0.001905315
207	0xbc5519f3	-0.013006675
208	0xbc5c8918	-0.01346042
209	0xbb9bcb17	-0.004754435
210	0xbcb92f07	-0.022605432
211	0xbb873d13	-0.0041271537
212	0xbcc8d949	-0.024517672
213	0xbce24193	-0.027619159
214	0x3b8ebe9c	0.0043562185
215	0x3b1515f6	0.0022748685
216	0x3c2b4eee	0.01045583
217	0x3bea4e78	0.0071504675
218	0x3b48d269	0.0030642992
219	0xbafd6b9e	-0.0019334441
220	0xbc0c0af5	-0.008547534
221	0x3c9f3332	0.019433592
222	0xba896062	-0.0010480995
223	0xbbdf5621	-0.0068156873
224	0xbc7a5b63	-0.015280577
225	0x3c89e407	0.016832365
226	0x3a0ebfec	0.00054454687
227	0xbb3223bc	-0.0027181944
228	0xbb42a70a	-0.0029701614
229	0xbb9880db	-0.0046540326
230	0xb90fc811	-0.00013712073
231	0x3d06d737	0.03292009
232	0xbc739691	-0.014867441
233	0xbc8b05af	-0.016970484
234	0xba0762d8	-0.000516457
235	0xbcf9c2a5	-0.030488322
236	0x3c7facae	0.015605135
237	0x3cc1f708	0.023677364
238	0xbc8b5cf1	-0.017012091
239	0x3c8d847f	0.017275093
240	0x3c9161f3	0.017746901
241	0x3cac2892	0.02101544
242	0xbba19cfa	-0.004932043
243	0xbc0a0268	-0.008423425
244	0xbc46b16e	-0.0121272635
245	0xbbe46aef	-0.0069707553
246	0x3d0fa3fe	0.035068505
247	0x3b0d09b5	0.0021520678
248	0xbb4537fd	-0.0030093186
249	0xbc46cb7f	-0.012133478
250	0xbd38801c	-0.04504405
251	0x3c48f5d4	0.012265641
252	0xba9d39de	-0.0011995395
253	0x3bfa0434	0.0076298956
254	0x3bc2e98b	0.0059482506
255	0x3cc0d1d6	0.023537558

network.4.bias f4 [3]
0	0x3ea838f4	0.32855952
1	0x3eaf15a5	0.341962
2	0x3ea46793	0.3211027
